tflite_models/sign_quant.tflite (tflite, 482752 bytes, 14 tensors)

dense_35/bias f4 [26]
000000 f2 c9 6b 3e 3c 12 9b 3d 73 0c 75 bc 5d 8b b6 bd
       0.23026255 0.07571837 -0.014956581 -0.089133
000010 46 ce 5a 3d bf 0f 01 bd 4a 65 99 3e 83 68 8a 3d
       0.053419374 -0.031509157 0.2996009 0.06758215
000020 eb 76 0c 3e e5 3e 0e bd e4 6e 35 3c bf 8c 8b 3d
       0.13717239 -0.03472795 0.011073802 0.068139546
000030 39 89 bf 3c 89 fb c8 3c b7 c5 02 be e2 bf d7 bd
       0.023380863 0.024534004 -0.12770735 -0.105346456
000040 a0 67 a0 3d 4a e1 47 bd 5c 3b 4a be f9 fb 83 be
       0.07832265 -0.048798837 -0.19749206 -0.25778177
000050 1d e4 97 be 9c 7d 95 bd 78 01 37 bd f1 ad 7f 39
       -0.29666224 -0.07299349 -0.044679135 0.00024383493
000060 ac 8d 58 3b c2 5e f1 bc
       0.0033043427 -0.02946413

dense_34/bias f4 [64]
000000 5b b1 5d 3d 65 4a 48 3d 31 34 a4 bc a6 f2 a4 3c
       0.054124217 0.048899073 -0.020044418 0.020135235
000010 1d 15 26 3e 3f 8f d9 3d e6 89 0e bd f0 01 0c 3e
       0.16218992 0.10623025 -0.03479948 0.13672614
000020 a8 71 97 3d 25 35 8c bd f5 58 21 be 80 cc 16 3d
       0.07394725 -0.06846074 -0.1575659 0.03681612
000030 44 bb bf 3d 65 df d6 3d 6c 6d a8 bd 6f cb 79 3d
       0.0936189 0.10491828 -0.082239956 0.060985025
000040 11 44 1d bd ab 85 29 3e 4e 8d cb bd c8 4d e7 3c
       -0.03839499 0.16554897 -0.09939061 0.028235331
000050 2c 2c f4 3c b4 e6 22 3c 52 f7 83 bd 4f 3a 32 3d
       0.029806219 0.009942699 -0.06443657 0.04351264
000060 0e 2b a2 3d d0 12 23 bd 8a 61 73 bd 57 58 33 3d
       0.07918368 -0.039812863 -0.059419192 0.04378542
000070 1c 3c 76 3e e4 b7 4c bd 20 1a d4 bd d6 a3 02 3e
       0.24046367 -0.04998006 -0.103565454 0.12757811
000080 3e ea 6c bc a7 8f 71 3c e0 a3 ad bd 05 66 c3 bc
       -0.014460145 0.014743722 -0.08478522 -0.023852358
000090 ed 58 d8 3a cb e5 87 3d 98 cd b4 3b 5d ee a1 3d
       0.0016505994 0.066356264 0.0055176727 0.07906792
0000a0 56 64 ff 3d 6f da bb bd 01 df 82 be 72 37 2e 3e
       0.124703094 -0.09172522 -0.25560763 0.17013338
0000b0 e5 88 e1 bd 50 5a 02 3e dd 61 90 bb ff 25 79 bd
       -0.11012439 0.12729764 -0.0044061975 -0.06082725
0000c0 00 a2 95 3d 1a b0 43 3d ca 0c 92 bd 91 54 9a 3c
       0.0730629 0.047775365 -0.071313456 0.018839153
0000d0 2d 2c 01 be ea 89 ef bc a0 83 63 3d 11 8b bf bd
       -0.12614508 -0.029240567 0.05554545 -0.09352697
0000e0 1f e2 7e 3e 98 4e ee bd 54 9d 3e 3e 0c 9a 5a bd
       0.24890946 -0.11636084 0.18614703 -0.053369567
0000f0 4f f8 2a 3b 45 d0 36 be d8 f7 10 be c3 60 3c bc
       0.0026087945 -0.17852886 -0.14157045 -0.011497679

dense_33/bias f4 [128]
000000 f6 9a 64 bd bd 1a a9 bd 1e 0a db bd 1e ce 03 be
       -0.055811845 -0.08257053 -0.10695289 -0.12871596
000010 4d 72 08 bd 5c 26 b3 3c 41 96 7c bc b9 32 94 bd
       -0.03331213 0.021868877 -0.015416683 -0.07236237
000020 49 51 24 3d 14 a0 b8 3d b7 42 d6 bd bf 2d 3f 3d
       0.040116582 0.090149075 -0.104619436 0.046674486
000030 92 55 d2 bc 70 53 c1 bc 7d 96 81 3d 93 52 b3 bd
       -0.025675569 -0.023599356 0.063275315 -0.08755984
000040 41 a3 33 bd 2e 39 a5 3d 3e 93 eb bd bc 68 d2 bc
       -0.043856863 0.08067547 -0.115026936 -0.025684707
000050 5c 72 7d bc 9b 6a a6 bd f7 42 47 bd 23 fa 8a 3d
       -0.01546916 -0.08125802 -0.048647847 0.06785991
000060 58 72 48 3c af 9f e1 3d 22 6d 81 bd 50 58 6f bd
       0.012234293 0.11016785 -0.063196436 -0.05843383
000070 50 1e 9b bd 40 7f ce 3c 9c 18 b9 bd bb e8 8d bd
       -0.07574141 0.025207162 -0.09037897 -0.069291554
000080 6e ef 9b bd 77 1c 25 3d a3 84 8b 3d 64 fd dc bd
       -0.07614027 0.04031035 0.06812408 -0.10790518
000090 88 cf 88 3d f4 e0 7e bd 06 09 f7 bd d7 41 0f be
       0.066802084 -0.06222625 -0.12062268 -0.1398996
0000a0 a7 ff 77 bd 38 88 35 bd 9c a5 ce bd 2f cc 59 bd
       -0.060546543 -0.04431936 -0.10090181 -0.05317324
0000b0 1d 1f b5 bd 69 e1 06 3e 49 80 d4 bc f7 41 6c bd
       -0.08843825 0.13171925 -0.025940077 -0.057680096
0000c0 45 41 44 bd 37 69 09 3d 7e 1b 87 3b af 4c 1e 3e
       -0.04791381 0.033547606 0.0041231504 0.1545894
0000d0 8f ef 81 bd 0d 17 3b bd bc 04 5f bc d2 c9 30 bd
       -0.0634452 -0.04567628 -0.013611969 -0.04316122
0000e0 fd 40 97 bc fb 36 85 bd d5 0b af bc df 15 3c 3d
       -0.018463606 -0.06504627 -0.021367947 0.045919295
0000f0 11 44 45 3c 72 5e 08 bd 5b 1b e3 bd 4a c3 9e ba
       0.012040154 -0.033293195 -0.11089202 -0.0012112644
000100 39 83 33 bd 9d 92 29 bc 33 be 72 3c 23 fb 81 bd
       -0.043826316 -0.010349897 0.014815855 -0.06346729
000110 6d 13 4c bd d7 5c 8b bd f5 64 3b bc b5 62 85 bd
       -0.049823213 -0.06804817 -0.011437644 -0.065129675
000120 6b 56 be bd cc 54 71 3d 86 dd c6 bd 2f d5 2f bd
       -0.09293827 0.05891876 -0.09710221 -0.042927917
000130 4a 43 68 bc 31 dc e0 3b 98 1b df bd ca 01 a9 bd
       -0.014176199 0.0068621864 -0.10893935 -0.08252294
000140 77 c2 9c bd 20 cc 22 3d ac e8 4c bd 74 ea 20 be
       -0.07654279 0.03974545 -0.05002658 -0.15714437
000150 5c 3d c6 bc 5a 70 ca bd 44 8c d9 bd c0 86 e6 bd
       -0.02419918 -0.098847106 -0.10622457 -0.1125617
000160 b5 bd 4f 3d 8c a9 a5 bd cb 8b 9f bd 45 17 92 bd
       0.050718028 -0.08088979 -0.07790335 -0.071333446
000170 e4 c7 b2 3c f0 fd 55 3c 9d c8 04 3b a0 ef 52 bd
       0.02182383 0.013061032 0.0020261176 -0.051498055
000180 07 7c c1 bd 36 33 cd 3c 5b d7 0e bd 56 3d 3c bd
       -0.094474845 0.025048833 -0.034873348 -0.045956932
000190 94 44 b6 3c 58 c0 00 be fa 05 00 bd a9 26 80 3d
       0.022249497 -0.12573373 -0.0312557 0.06257374
0001a0 e2 4d 42 bd c6 80 ab 3d 13 c1 c8 3c c6 79 64 3d
       -0.047437556 0.08374171 0.024506127 0.055780195
0001b0 f5 1a b4 bd f8 82 6d bd ca f6 d4 bd 87 24 35 3d
       -0.08794204 -0.05798623 -0.10398634 0.04422429
0001c0 63 8e 95 bd 24 76 d7 3c 9b cc 2e bc 06 1a 4c bd
       -0.07302549 0.026301451 -0.010668899 -0.049829505
0001d0 f7 14 13 bd 7b ea be bd 4c 51 46 3b 5b f7 ff 3c
       -0.035908666 -0.09322067 0.003026086 0.031245878
0001e0 e8 85 03 bd 66 cd 03 bc 37 67 6e bc 54 a9 63 3c
       -0.032110125 -0.008044576 -0.0145509755 0.013895351
0001f0 e8 2a 2f 3d 09 33 82 3d b5 ba d0 bc c3 2c 24 bd
       0.042765528 0.063573904 -0.025479654 -0.04008175

conv2d_47/bias f4 [256]
000000 26 1a 06 3e 4f 0d f4 bd 7a df 42 bd 3f 6f d6 bc
       0.13095912 -0.11916601 -0.047576405 -0.026176093
000010 cb 7e 54 3d 06 f5 ea 3d 47 1d 41 bc 4f 4f cb bd
       0.05187873 0.11472516 -0.011786765 -0.09927236
000020 12 4d 20 bd 48 fb ca bd d1 c2 90 bd d3 6b 2e bc
       -0.039136 -0.09911209 -0.07068408 -0.0106458245
000030 4b d4 b0 bc be 71 4e 3d 43 53 64 bc 21 ba 45 bd
       -0.021585604 0.05040144 -0.013935867 -0.04827321
000040 3e e3 ba 3d 42 66 c5 3c 0a 89 78 3c de fa 67 bc
       0.09125374 0.024096612 0.015169391 -0.0141589325
000050 02 1e 4e bd a8 fd 89 bd 48 57 67 bc 14 14 80 bd
       -0.050321586 -0.06737834 -0.014119931 -0.062538296
000060 eb ae 58 3c 9a 27 09 3d ad 43 84 bd 46 0a aa bc
       0.013225297 0.033485033 -0.06458221 -0.020756852
000070 a5 7d a8 3c 15 8b 0d bc b4 1d 9d bc 88 4a b1 3d
       0.020567724 -0.008639117 -0.019179203 0.08656794
000080 16 62 d8 bc 17 82 94 bb 5a be c0 bc a8 15 de 3c
       -0.026413959 -0.0045321095 -0.023528267 0.027109936
000090 fc 6b 44 bd 52 a1 0c 3d 8f 2e 7a bd cd 53 a1 bd
       -0.047954544 0.034333535 -0.061079558 -0.07877312
0000a0 22 3b cd bd 81 ef 4a bd e2 01 7a bc 94 f0 95 bd
       -0.10021044 -0.049544815 -0.015259238 -0.07321277
0000b0 cd dd 1e bd 7b 1e 37 bc c7 0b 0e bd 46 b6 38 3d
       -0.038785744 -0.011176701 -0.0346792 0.045095704
0000c0 45 3f 20 3c de 74 86 3d c1 9c 95 bc d5 27 bb bd
       0.00978071 0.065652594 -0.018263223 -0.09138457
0000d0 90 be 0a be 8a 09 66 bd ba 5f 16 3e 2d 9a 97 3c
       -0.13549256 -0.05616144 0.14684954 0.018506134
0000e0 f1 23 c2 3d 21 35 5d bd 4f 9e 31 bc 27 dc 28 bd
       0.094795115 -0.054005746 -0.010840966 -0.04122558
0000f0 da 9f 11 bc 1c 6d 63 3d a8 6b 06 be 7d 32 32 bd
       -0.008888209 0.055523977 -0.13127005 -0.04350518
000100 48 72 74 bd e1 29 0b be 95 88 05 bd ce 9b 18 bc
       -0.0596793 -0.13590194 -0.032600958 -0.0093144905
000110 8a 0f c8 bc 6c 63 a9 3b 4b 33 66 bd 3c ba 90 bc
       -0.024421472 0.0051693227 -0.05620126 -0.017666928
000120 78 3f 80 bd 02 9b 93 bb 9d 4d ea bb cd a4 d7 3c
       -0.06262106 -0.0045045624 -0.0071503655 0.0263237
000130 97 17 98 bd 2f 1a 09 bc bf 5d 6e bd aa 9e 04 be
       -0.074263744 -0.008368059 -0.058194872 -0.1295115
000140 c7 64 f1 bd ad 86 1c bd b5 88 91 bc c4 2c 15 bd
       -0.117868 -0.038214374 -0.017765382 -0.036419645
000150 91 aa 25 be 91 2a 4d bd ab f4 07 be 02 e5 15 bc
       -0.16178347 -0.050089423 -0.13276927 -0.009148838
000160 64 68 30 bc 18 e6 07 bd 48 5d 2a 3b 78 ba b7 bd
       -0.010767076 -0.03317842 0.0025995541 -0.08971113
000170 93 7e a5 bd 0c 5b 2b bc dd 07 a5 bd 40 46 54 bc
       -0.08080783 -0.010458719 -0.080581404 -0.012956202
000180 94 91 17 bd fb ac fc bd 89 ed 3e bd 78 75 9f bc
       -0.03700407 -0.12337681 -0.04661325 -0.019465193
000190 83 dd b2 3c 2f c8 b8 bd 31 18 23 bc 34 74 01 bc
       0.02183414 -0.09022557 -0.009954498 -0.00790124
0001a0 07 c1 6c bc 5d e8 1c bc b4 31 41 3c 07 b8 4f 3c
       -0.014450318 -0.009576884 0.011791635 0.012678153
0001b0 d4 f9 03 bd 0f 8c 16 bb 7c 67 58 bd bf 3f bb bd
       -0.032220677 -0.0022971665 -0.052833065 -0.09143018
0001c0 64 21 65 bc ad 5a 3f bd 05 6d ee bc b4 24 e6 bd
       -0.013985012 -0.046717335 -0.029104719 -0.11237469
0001d0 62 d1 bf bb d1 20 f7 bd 2e 23 25 bd e0 91 f4 bd
       -0.005853818 -0.12066806 -0.040316753 -0.11941886
0001e0 29 1a ce bb 7f ba 3b bc ee 02 2c bd 4c 5f ee bd
       -0.0062897396 -0.011458038 -0.04199498 -0.1163927
0001f0 c9 cb fe bd 0a 9c ab bd 23 64 f4 bb c6 80 1d ba
       -0.12441213 -0.083793715 -0.0074582263 -0.00060082634
000200 6b a3 87 bc c4 18 b4 bc e8 2c 27 bd 2e 31 19 bd
       -0.016557416 -0.021984465 -0.04081431 -0.037400417
000210 02 0e f7 3c 92 33 6a bd 40 66 c5 bd 42 82 a1 bc
       0.030158047 -0.057178088 -0.09638643 -0.019715432
000220 8c 4e 18 3c c5 b5 a5 bd 71 1b c1 bd 36 a4 d0 3d
       0.009296071 -0.080913104 -0.09429062 0.10187571
000230 4e 3d 9d bd 53 d4 00 bc 90 47 d4 bd 9e c5 d1 bd
       -0.076777086 -0.007863122 -0.10365212 -0.102427706
000240 c5 ed 05 3d 6e 93 cc bd 1c ee bc bc 73 a2 02 bd
       0.032697458 -0.099890575 -0.023062758 -0.031893205
000250 f1 10 5f bc 17 ce eb bd 95 cc 07 be d9 f1 00 be
       -0.013614879 -0.11513918 -0.13261636 -0.12592258
000260 9f 2e 3e bd 52 7a 80 bd 73 2a 8a bb a9 8f 05 be
       -0.04643118 -0.06273331 -0.004216486 -0.13043083
000270 01 94 da bd c0 e9 a0 bd 85 6c 20 bd 26 1d 93 bc
       -0.10672761 -0.07857084 -0.039165992 -0.017958235
000280 fe 2f 2b bd 05 10 36 bd 5b 6f c1 bd cc 4b ab bd
       -0.041793816 -0.04444887 -0.094450675 -0.083640665
000290 b8 33 5c bd ac a3 19 bd 4a 88 5e 3d 3c f9 14 bd
       -0.05376026 -0.037509605 0.054329194 -0.0363705
0002a0 93 f7 80 3d 02 c4 b0 bc ea 69 8e bc 84 60 88 3d
       0.06297221 -0.021577839 -0.017384488 0.06659034
0002b0 b1 4e e4 3d 34 18 a7 3d ca e7 10 be 14 ac df bb
       0.11147822 0.08158913 -0.1415092 -0.0068259332
0002c0 1e 71 50 bb 11 1b 5b bc da b2 b2 bc 35 b5 87 bd
       -0.0031805704 -0.013373152 -0.021813799 -0.066263594
0002d0 82 97 a4 bd 4c b2 e4 bd a8 8e 0b bd 74 12 9a bd
       -0.0803671 -0.1116682 -0.034071594 -0.07523051
0002e0 5b f8 34 bd 98 90 d4 bb 14 59 04 be 74 ae af bd
       -0.044182163 -0.0064869635 -0.12924606 -0.08578196
0002f0 06 4b f0 bc 1d 79 95 bd b4 b8 f9 bc b4 66 18 bd
       -0.029332649 -0.07298491 -0.030483581 -0.03720732
000300 8f 3a a5 3d 8c 45 34 bd c8 ab 2e bd c2 78 3b bd
       0.0806781 -0.044011638 -0.042644292 -0.04576946
000310 b4 75 05 bd d1 58 b5 bd 26 1f 8c bc 54 e0 0c bd
       -0.032582954 -0.08854831 -0.017104696 -0.034393623
000320 1d e8 33 bd 4b 5b da bd f6 52 a6 bd 16 08 eb bc
       -0.043922532 -0.10661944 -0.08121292 -0.02869038
000330 22 d7 20 bd 7f f6 a5 bd 78 cf 1a bd 12 48 0a 3e
       -0.039267667 -0.08103656 -0.037795514 0.13504055
000340 f9 a8 c4 bc c0 f5 f0 bc 03 e0 0d bc ca de 96 bd
       -0.024006354 -0.029414058 -0.008659366 -0.073667124
000350 39 86 1f be d4 72 8a 3c b2 4d ef 3d 8e 8c 86 bd
       -0.15578546 0.016900457 0.11684741 -0.065697774
000360 0d 66 fd bb dd b4 0e be 6d 1d 1a bc ba 32 74 bd
       -0.0077331127 -0.13936181 -0.00940643 -0.05961869
000370 81 ac 63 bd 0e 6b 8d bc 7e 1d 22 bb 63 09 99 3d
       -0.055584434 -0.017262962 -0.0024736817 0.074724935
000380 5f 23 cb 3d 61 bb af bd aa c7 c9 bc b8 4a a6 bc
       0.09918856 -0.085806616 -0.02463134 -0.0202993
000390 bd 3a 9d bb 43 90 84 bd ce 44 43 bd 91 90 47 3c
       -0.004798262 -0.06472828 -0.04767304 0.012180463
0003a0 e7 6f 39 bd ed 5d 9e 3d 24 d8 44 bd 74 b0 0f be
       -0.045272734 0.07732759 -0.04805769 -0.14032155
0003b0 b6 ac 05 be 51 81 40 bd 90 77 0a bd 08 f0 56 bc
       -0.13054165 -0.046998326 -0.03380543 -0.013118751
0003c0 8e df 73 bd dc bb bf bb 22 59 bc 3d 74 88 ef 3c
       -0.05953937 -0.005851252 0.09196688 0.02923987
0003d0 db 97 a3 bc 97 9a 04 be 7f 71 19 bd e3 45 18 be
       -0.019969871 -0.12949596 -0.037461754 -0.1487041
0003e0 5d b2 4c bd 37 8b a0 3b ff 9e 46 bd 1b e4 1a bd
       -0.049974788 0.004899408 -0.048491474 -0.037815195
0003f0 3f 39 da bc b2 69 c8 3c 8b 24 10 bd 35 87 b5 bd
       -0.026638625 0.024464462 -0.0351911 -0.08863679

conv2d_46/bias f4 [128]
000000 9b f6 87 bd 7b 14 08 be b1 92 01 be a8 b1 f9 bc
       -0.06638833 -0.13289063 -0.12653615 -0.03048022
000010 d7 93 d4 bd de 2d f3 bc 2c 7f b4 bd ac f6 8d 3d
       -0.10379761 -0.029684957 -0.088133186 0.069318146
000020 d3 8c ef 3d d9 30 64 bd e3 63 3b 3c 8b d5 be bc
       0.11696782 -0.055710647 0.011437389 -0.023295185
000030 94 b1 03 bd ff 4c ce bd cc cc c4 ba 0f 9a 9d ba
       -0.032151774 -0.100732796 -0.0015014648 -0.0012024062
000040 28 22 0e 3b 00 45 de 3c a7 de b4 bd 86 02 cc bc
       0.002168784 0.027132511 -0.0883153 -0.024903547
000050 ce c0 ab bd ac e9 35 3c 3d d1 95 bc e7 ee ee bc
       -0.08386384 0.011103075 -0.01828825 -0.029166652
000060 70 34 0b bd 81 ce d4 bc bf e9 2e bd 3a 2b f1 bd
       -0.033985555 -0.025977375 -0.042703386 -0.11775823
000070 ee 78 0c be be c5 e7 bc ae f9 90 3d b9 6b 0f be
       -0.13718006 -0.028292533 0.070788726 -0.14005937
000080 36 d1 24 bd e1 0f e7 bc ef 40 55 3d 54 08 9d 3d
       -0.04023858 -0.028205814 0.05206388 0.07667604
000090 ca 37 80 bd 73 b3 48 bc b5 f5 a7 bc d6 aa 6f bd
       -0.06260641 -0.012249815 -0.020502904 -0.05851253
0000a0 de 7d 86 3d 02 dc 46 bc 46 9e 88 bd fe d7 31 3d
       0.06566976 -0.012137415 -0.06670813 0.043418877
0000b0 92 27 08 be bd 0c 81 bd bb a1 58 bc 4b 2d 7c 3d
       -0.13296345 -0.06301258 -0.013222153 0.061566632
0000c0 a6 5f 3b bc a7 a4 7c bd ec c4 12 be ee 7a 91 bc
       -0.011436379 -0.061680462 -0.14332932 -0.017758813
0000d0 5a 7a 97 3d 31 d2 ce bd 24 4f 64 bd 06 ea 3d 3d
       0.073963836 -0.100986846 -0.055739537 0.04636576
0000e0 59 02 e1 3c d5 cc d6 3b f1 18 11 bd e6 d5 48 bd
       0.02746694 0.0065551796 -0.035424177 -0.049032114
0000f0 05 9c 83 3d 15 3d 9c bd 88 55 29 bd 34 dd c7 bc
       0.06426243 -0.07628838 -0.041341335 -0.02439747
000100 9f c9 49 bd ea d2 89 ba 06 a2 31 3d 3e 31 92 bc
       -0.049264546 -0.0010515128 0.04336741 -0.017845746
000110 dc 5b 3a bc 9c 41 90 3c cd 54 2a 3d 7b 5f 8b bc
       -0.01137444 0.01760941 0.04158478 -0.017013302
000120 f1 39 1f bd 8d 98 ef 3c 7b 56 b9 bc 0f 37 ab bc
       -0.038873617 0.029247547 -0.022624245 -0.020900277
000130 56 e8 ca bd 71 82 d2 bd 99 a4 e1 3d 95 fa 12 bd
       -0.09907596 -0.10278786 0.11017723 -0.035883505
000140 ab 5a 08 bd 4a c4 05 be 0f 55 cc bd 27 ad 4f bd
       -0.033289593 -0.1306316 -0.09977161 -0.05070224
000150 be 1f f1 3d 1f 30 64 3d b9 9d a2 bd d2 47 64 bd
       0.117736325 0.055709954 -0.079402395 -0.055732556
000160 60 be b0 bd 6d d4 b0 bd 6d 85 08 bd 2a b8 32 bb
       -0.08630061 -0.08634267 -0.03333037 -0.0027270415
000170 91 9c a0 bd 11 af ed bd 56 f7 38 bd e1 69 b2 3b
       -0.07842363 -0.11605657 -0.045157753 0.0054447507
000180 11 e5 1b be f4 e7 c0 bd 6a ca 9e bd d2 54 06 bc
       -0.152241 -0.094192415 -0.07753451 -0.008198934
000190 51 7c 6a 3d bf 34 1a 3e 5c aa 86 3c b1 a2 b2 3d
       0.057247464 0.15059184 0.016438656 0.08722437
0001a0 43 61 61 bc aa 47 41 3c 61 af 9c bd 9a 46 92 bc
       -0.013756099 0.011796871 -0.07650638 -0.017855931
0001b0 b1 b2 dd bd a0 98 e1 3c f6 7b 0e 3d ef b5 1a bc
       -0.10825098 0.027538598 0.034786187 -0.00944279
0001c0 1a 04 13 3d 3e bd 75 3d bb 75 77 3d 67 4a a7 bd
       0.035892583 0.05999493 0.06041501 -0.08168488
0001d0 3d c0 06 bb 8b 92 65 bd c1 b2 c2 bc 1c 74 2d be
       -0.002056136 -0.056047957 -0.023766877 -0.16938823
0001e0 74 bc b1 3d 70 de 5e 3d c4 32 e0 bc c9 eb 5e bc
       0.08678523 0.05441135 -0.027367957 -0.01360602
0001f0 24 7a 09 bd 3d 17 d8 3d 21 9f 7f 3b a7 9d 02 be
       -0.033563748 0.10551307 0.003900476 -0.12755452

conv2d_45/bias f4 [64]
000000 8f 9c 1e bc d4 a3 a4 bd cd bf d3 bc 24 3c 37 bc
       -0.009680881 -0.0803906 -0.025848294 -0.011183772
000010 c2 d8 3b bd 97 36 c2 bd 3a 37 8b 3c f1 95 12 bd
       -0.045861013 -0.094830684 0.016994108 -0.035787527
000020 30 c2 37 bd 26 2b be bd fc 8b e0 bd ba 16 f9 bd
       -0.044862926 -0.09285574 -0.109642 -0.12162538
000030 1f cc cf bd 8a cd 06 be 44 31 ab 3d 0f 50 7d bd
       -0.10146355 -0.13164344 0.08359006 -0.061843928
000040 de 8b ab bb ae ed 7f bd 9c 3e 30 be 1b 2c be 3a
       -0.0052351793 -0.06248253 -0.17211384 0.0014508994
000050 ba 25 ee bc 7d 78 ef bd 42 e6 66 3c d6 e5 74 bd
       -0.029070724 -0.11692903 0.014092984 -0.0597895
000060 da a8 9e 3d 04 7a f7 3b 55 dd b5 bd 76 52 dc bd
       0.0774705 0.007552387 -0.08880106 -0.10757916
000070 62 78 96 bd bc d2 8f bc 24 6e e8 bd 76 01 33 be
       -0.0734718 -0.01755654 -0.11349133 -0.17481026
000080 a4 e6 b1 3c 33 53 ac bd 6e 7f 83 bd 2b d0 2e be
       0.021716423 -0.084143065 -0.0642079 -0.17071597
000090 22 3b ba bd 65 04 dc bd 09 6e b7 bc ef 36 ca bd
       -0.0909331 -0.10743026 -0.022391336 -0.09873759
0000a0 34 08 30 bd ab 7a bb bd 7b 62 a2 bc 5c 43 8b bd
       -0.042976573 -0.091542564 -0.01982235 -0.06799957
0000b0 6f 3c ad bd b9 28 55 bd 1a eb d7 bd ed 30 48 bd
       -0.084587924 -0.05204079 -0.10542889 -0.048874784
0000c0 ad 85 1f bd c6 7f d7 bd 1b 04 9f bd 7b 6e a2 bd
       -0.038945843 -0.10522418 -0.07764455 -0.07931229
0000d0 05 a8 b2 bc 8c 20 02 be 70 11 0f 3d 4f d7 34 3d
       -0.021808634 -0.12707728 0.03492874 0.044150647
0000e0 eb cb bf 3d 62 cc cc bd c6 8b c5 bd e5 03 c9 bc
       0.09365066 -0.099999204 -0.096458 -0.02453799
0000f0 a8 5c cd bb 59 ef 01 be 22 90 67 be 74 6b b0 bd
       -0.006267149 -0.1268896 -0.22613576 -0.08614245

conv2d_44/bias f4 [32]
000000 6a 41 f8 bc 80 43 8e bc 9b cc d4 bc 6b c5 cf 3b
       -0.03030463 -0.01736617 -0.02597647 0.0063406727
000010 15 f9 83 bc f1 d4 34 3d 24 38 fe bd 81 3d f7 bd
       -0.016109983 0.04414839 -0.12413052 -0.12072278
000020 d9 50 b2 3d 6a 53 7e bd 7b 00 85 be 54 da 92 bd
       0.08706827 -0.06209127 -0.2597693 -0.07170549
000030 49 65 58 3d f5 75 80 bd 67 a8 4e 3d 26 94 c3 bd
       0.052830968 -0.062724985 0.05045357 -0.095497414
000040 8c 2a 73 be 8a 80 3f bd 29 26 c5 3c 3b ec 95 bc
       -0.23746699 -0.046753444 0.024066048 -0.01830112
000050 15 69 26 bd 7b ac 03 3d 64 7d 08 be e2 b3 fe bd
       -0.040627558 0.032146912 -0.13329083 -0.12436654
000060 af 7b 21 3d eb 87 1c bc 2d ff 1c bd ca 56 5e ba
       0.039424594 -0.00955389 -0.038329292 -0.00084815605
000070 fb 2f a9 bd 3c ba 23 bd fa 03 d5 3d 23 34 51 3c
       -0.08261105 -0.03997253 0.10401149 0.012768778

sequential_11/dense_33/MatMul i1 [128, 512] scale=0.004425607 zero_point=0
000000 f8 07 12 fc 24 d9 0d d8 fc f1 06 06 00 0c c6 0a
       -0.035404857 0.03097925 0.07966093 -0.017702429 0.15932186 -0.17259867 0.05753289 -0.17702429 -0.017702429 -0.06638411 0.026553642 0.026553642 0.0 0.053107284 -0.25668523 0.044256072
000010 24 09 f6 f0 09 08 eb 07 f7 1d 08 09 2f 09 02 35
       0.15932186 0.039830465 -0.044256072 -0.070809714 0.039830465 0.035404857 -0.09293775 0.03097925 -0.039830465 0.12834261 0.035404857 0.039830465 0.20800354 0.039830465 0.008851214 0.23455718
000020 16 f8 12 f1 ec f6 fc ea 1d fb f0 dd f5 f4 ef db
       0.09736336 -0.035404857 0.07966093 -0.06638411 -0.088512145 -0.044256072 -0.017702429 -0.09736336 0.12834261 -0.022128036 -0.070809714 -0.15489624 -0.04868168 -0.053107284 -0.07523532 -0.16374746
000030 14 25 f4 04 10 fc e0 fc 0c 08 07 ea 05 33 0c 15
       0.088512145 0.16374746 -0.053107284 0.017702429 0.070809714 -0.017702429 -0.14161943 -0.017702429 0.053107284 0.035404857 0.03097925 -0.09736336 0.022128036 0.22570597 0.053107284 0.09293775
000040 04 ec eb 01 f7 fd dc d7 e1 43 e1 06 ea 20 f3 ea
       0.017702429 -0.088512145 -0.09293775 0.004425607 -0.039830465 -0.013276821 -0.15932186 -0.18144989 -0.13719383 0.29651567 -0.13719383 0.026553642 -0.09736336 0.14161943 -0.05753289 -0.09736336
000050 f8 08 fa ef de eb 0a ff 0f ea f5 08 3a fa 1c 0a
       -0.035404857 0.035404857 -0.026553642 -0.07523532 -0.15047064 -0.09293775 0.044256072 -0.004425607 0.06638411 -0.09736336 -0.04868168 0.035404857 0.25668523 -0.026553642 0.123917 0.044256072
000060 ca ff f1 f8 e1 e9 ee f2 f3 f8 10 e0 08 11 f2 fc
       -0.23898278 -0.004425607 -0.06638411 -0.035404857 -0.13719383 -0.10178897 -0.07966093 -0.0619585 -0.05753289 -0.035404857 0.070809714 -0.14161943 0.035404857 0.07523532 -0.0619585 -0.017702429
000070 ff f6 e1 01 32 18 f4 1f f6 f9 dc 13 0b ff 01 f7
       -0.004425607 -0.044256072 -0.13719383 0.004425607 0.22128035 0.10621457 -0.053107284 0.13719383 -0.044256072 -0.03097925 -0.15932186 0.08408654 0.04868168 -0.004425607 0.004425607 -0.039830465
000080 12 fc f2 23 d9 01 fb 07 13 fe f9 07 ed f6 12 fc
       0.07966093 -0.017702429 -0.0619585 0.15489624 -0.17259867 0.004425607 -0.022128036 0.03097925 0.08408654 -0.008851214 -0.03097925 0.03097925 -0.08408654 -0.044256072 0.07966093 -0.017702429
000090 04 f9 d2 21 f5 15 1e 08 f6 e5 ea 00 ef 16 23 f2
       0.017702429 -0.03097925 -0.20357794 0.14604503 -0.04868168 0.09293775 0.13276821 0.035404857 -0.044256072 -0.11949139 -0.09736336 0.0 -0.07523532 0.09736336 0.15489624 -0.0619585
0000a0 16 ea 0e f2 0a 00 f6 f8 f5 13 f7 f3 ee dc df fe
       0.09736336 -0.09736336 0.0619585 -0.0619585 0.044256072 0.0 -0.044256072 -0.035404857 -0.04868168 0.08408654 -0.039830465 -0.05753289 -0.07966093 -0.15932186 -0.14604503 -0.008851214
0000b0 f1 0a 0a 19 f3 2f 33 08 fe f5 ff f3 00 2c e6 f3
       -0.06638411 0.044256072 0.044256072 0.110640176 -0.05753289 0.20800354 0.22570597 0.035404857 -0.008851214 -0.04868168 -0.004425607 -0.05753289 0.0 0.19472672 -0.11506578 -0.05753289
0000c0 f0 f3 fe 1f fd 04 04 00 f1 f5 04 cc 06 d2 ff 03
       -0.070809714 -0.05753289 -0.008851214 0.13719383 -0.013276821 0.017702429 0.017702429 0.0 -0.06638411 -0.04868168 0.017702429 -0.23013157 0.026553642 -0.20357794 -0.004425607 0.013276821
0000d0 f8 ff 06 f7 fa 08 fc 0e 08 f4 ee ff 18 ee 04 f8
       -0.035404857 -0.004425607 0.026553642 -0.039830465 -0.026553642 0.035404857 -0.017702429 0.0619585 0.035404857 -0.053107284 -0.07966093 -0.004425607 0.10621457 -0.07966093 0.017702429 -0.035404857
0000e0 08 0c fc 19 02 12 d3 ff 14 13 0d ff 1e e5 18 03
       0.035404857 0.053107284 -0.017702429 0.110640176 0.008851214 0.07966093 -0.19915232 -0.004425607 0.088512145 0.08408654 0.05753289 -0.004425607 0.13276821 -0.11949139 0.10621457 0.013276821
0000f0 0e 0d f1 c9 fa 04 05 f9 08 14 13 f8 00 e7 07 ff
       0.0619585 0.05753289 -0.06638411 -0.2434084 -0.026553642 0.017702429 0.022128036 -0.03097925 0.035404857 0.088512145 0.08408654 -0.035404857 0.0 -0.110640176 0.03097925 -0.004425607

sequential_11/dense_34/MatMul i1 [64, 128] scale=0.004234917 zero_point=0
000000 f7 dd 16 25 07 05 1f fb a7 ef e8 2d 2b 08 0e 15
       -0.038114253 -0.14822209 0.09316818 0.15669192 0.029644419 0.021174585 0.13128243 -0.021174585 -0.37690762 -0.07199359 -0.101638004 0.19057126 0.18210143 0.033879336 0.059288837 0.08893326
000010 f0 ec 14 e9 0c e9 13 0e fa ed fa 09 c4 db f4 0d
       -0.06775867 -0.08469834 0.08469834 -0.097403094 0.050819002 -0.097403094 0.080463424 0.059288837 -0.025409501 -0.080463424 -0.025409501 0.038114253 -0.25409502 -0.15669192 -0.050819002 0.05505392
000020 ea a4 ad f4 0f 50 e2 d4 f3 c7 0b ab 34 c0 0e f1
       -0.09316818 -0.38961238 -0.3514981 -0.050819002 0.063523754 0.33879337 -0.12704751 -0.18633635 -0.05505392 -0.24139027 0.04658409 -0.35996795 0.22021568 -0.2710347 0.059288837 -0.063523754
000030 ec 0b e5 e4 fc ea f9 de e5 fb 0b 81 16 e1 df ee
       -0.08469834 0.04658409 -0.11434276 -0.118577674 -0.016939668 -0.09316818 -0.029644419 -0.14398718 -0.11434276 -0.021174585 0.04658409 -0.53783447 0.09316818 -0.13128243 -0.13975225 -0.07622851
000040 fe 17 0b 11 c2 ef 02 f8 07 0b d7 0d 19 0f 0f 15
       -0.008469834 0.097403094 0.04658409 0.07199359 -0.26256487 -0.07199359 0.008469834 -0.033879336 0.029644419 0.04658409 -0.1736316 0.05505392 0.10587292 0.063523754 0.063523754 0.08893326
000050 fc db 13 03 2f e3 12 f9 1c fd e4 bd fe 2e fe 29
       -0.016939668 -0.15669192 0.080463424 0.0127047505 0.1990411 -0.12281259 0.07622851 -0.029644419 0.118577674 -0.0127047505 -0.118577674 -0.28373945 -0.008469834 0.19480619 -0.008469834 0.1736316
000060 10 a8 ba e9 1c 09 b8 be 17 ca b5 bb 05 fb c2 3c
       0.06775867 -0.3726727 -0.29644418 -0.097403094 0.118577674 0.038114253 -0.30491403 -0.2795045 0.097403094 -0.22868551 -0.3176188 -0.29220927 0.021174585 -0.021174585 -0.26256487 0.25409502
000070 06 bf c8 f8 ef 25 17 20 0e dd cf 02 05 16 e3 da
       0.025409501 -0.2752696 -0.23715535 -0.033879336 -0.07199359 0.15669192 0.097403094 0.13551734 0.059288837 -0.14822209 -0.20751093 0.008469834 0.021174585 0.09316818 -0.12281259 -0.16092685
000080 25 e6 ec bf 04 0f e5 17 d1 16 ee fe 2b 0c 0f 18
       0.15669192 -0.11010784 -0.08469834 -0.2752696 0.016939668 0.063523754 -0.11434276 0.097403094 -0.1990411 0.09316818 -0.07622851 -0.008469834 0.18210143 0.050819002 0.063523754 0.101638004
000090 08 1f 0f 19 db e8 3a e5 ed 1e ca 09 1e 03 e6 41
       0.033879336 0.13128243 0.063523754 0.10587292 -0.15669192 -0.101638004 0.24562518 -0.11434276 -0.080463424 0.12704751 -0.22868551 0.038114253 0.12704751 0.0127047505 -0.11010784 0.2752696
0000a0 02 3e 1b f4 17 25 26 f8 0b e4 18 08 f5 f2 ea d5
       0.008469834 0.26256487 0.11434276 -0.050819002 0.097403094 0.15669192 0.16092685 -0.033879336 0.04658409 -0.118577674 0.101638004 0.033879336 -0.04658409 -0.059288837 -0.09316818 -0.18210143
0000b0 02 26 53 f8 cd ea 09 f0 b6 fd e9 0f de df 18 f4
       0.008469834 0.16092685 0.3514981 -0.033879336 -0.21598077 -0.09316818 0.038114253 -0.06775867 -0.31338385 -0.0127047505 -0.097403094 0.063523754 -0.14398718 -0.13975225 0.101638004 -0.050819002
0000c0 eb 3e ec 00 b4 06 0c 3a 21 13 10 da 12 dc f4 30
       -0.08893326 0.26256487 -0.08469834 0.0 -0.3218537 0.025409501 0.050819002 0.24562518 0.13975225 0.080463424 0.06775867 -0.16092685 0.07622851 -0.15245701 -0.050819002 0.20327601
0000d0 d9 e4 0a f3 19 ee 04 26 bb 1e ec db 34 d7 d1 24
       -0.16516176 -0.118577674 0.04234917 -0.05505392 0.10587292 -0.07622851 0.016939668 0.16092685 -0.29220927 0.12704751 -0.08469834 -0.15669192 0.22021568 -0.1736316 -0.1990411 0.15245701
0000e0 fa 18 f9 05 1a d3 06 08 1c f3 f7 f4 f6 ea ba f5
       -0.025409501 0.101638004 -0.029644419 0.021174585 0.11010784 -0.19057126 0.025409501 0.033879336 0.118577674 -0.05505392 -0.038114253 -0.050819002 -0.04234917 -0.09316818 -0.29644418 -0.04658409
0000f0 ec ec f1 39 f5 d9 2e 00 d2 36 f2 c5 e0 1d 9f 1a
       -0.08469834 -0.08469834 -0.063523754 0.24139027 -0.04658409 -0.16516176 0.19480619 0.0 -0.19480619 0.22868551 -0.059288837 -0.24986011 -0.13551734 0.12281259 -0.41078696 0.11010784

sequential_11/dense_35/MatMul i1 [26, 64] scale=0.00805512 zero_point=0
000000 07 f9 fe c6 de d9 d1 ce d5 24 ee e8 f3 d7 09 16
       0.056385837 -0.056385837 -0.01611024 -0.46719694 -0.27387407 -0.31414968 -0.37859064 -0.40275598 -0.34637016 0.28998432 -0.14499216 -0.19332287 -0.104716554 -0.33025992 0.07249608 0.17721264
000010 e0 cf 17 0f 1d e0 dc e9 d7 08 cf 21 f0 27 cf 1b
       -0.25776383 -0.39470086 0.18526776 0.120826796 0.23359847 -0.25776383 -0.28998432 -0.18526776 -0.33025992 0.06444096 -0.39470086 0.26581895 -0.12888192 0.31414968 -0.39470086 0.21748823
000020 ca 1c e2 dc c6 eb 0e fd e3 01 d4 f5 ff ec ef d8
       -0.43497646 0.22554335 -0.24165359 -0.28998432 -0.46719694 -0.16915752 0.112771675 -0.024165358 -0.23359847 0.00805512 -0.35442528 -0.08860632 -0.00805512 -0.1611024 -0.13693704 -0.3222048
000030 a1 df cc 15 fe ed de f4 c3 f0 18 eb 14 e2 fc c9
       -0.7652364 -0.26581895 -0.41886622 0.16915752 -0.01611024 -0.15304728 -0.27387407 -0.09666143 -0.4913623 -0.12888192 0.19332287 -0.16915752 0.1611024 -0.24165359 -0.03222048 -0.44303158
000040 f9 e3 b2 0e f7 07 05 e5 d0 f4 fd f0 fc e6 db e0
       -0.056385837 -0.23359847 -0.62829936 0.112771675 -0.07249608 0.056385837 0.0402756 -0.21748823 -0.38664573 -0.09666143 -0.024165358 -0.12888192 -0.03222048 -0.20943311 -0.29803944 -0.25776383
000050 23 cc 1c 08 f1 cb ea 0e e1 e1 bd c7 c7 f1 17 09
       0.2819292 -0.41886622 0.22554335 0.06444096 -0.120826796 -0.42692134 -0.17721264 0.112771675 -0.24970871 -0.24970871 -0.539693 -0.45914182 -0.45914182 -0.120826796 0.18526776 0.07249608
000060 e4 ee 08 1d df d8 14 d4 dc e2 15 14 ce 0e fe e2
       -0.22554335 -0.14499216 0.06444096 0.23359847 -0.26581895 -0.3222048 0.1611024 -0.35442528 -0.28998432 -0.24165359 0.16915752 0.1611024 -0.40275598 0.112771675 -0.01611024 -0.24165359
000070 c7 bc fa 0e 20 fe c3 0f c6 e2 ea f0 0e 04 0b e2
       -0.45914182 -0.54774815 -0.048330717 0.112771675 0.25776383 -0.01611024 -0.4913623 0.120826796 -0.46719694 -0.24165359 -0.17721264 -0.12888192 0.112771675 0.03222048 0.08860632 -0.24165359
000080 f3 16 bc 16 c5 04 05 c2 06 1f f4 e5 ff e5 01 e3
       -0.104716554 0.17721264 -0.54774815 0.17721264 -0.47525206 0.03222048 0.0402756 -0.49941742 0.048330717 0.24970871 -0.09666143 -0.21748823 -0.00805512 -0.21748823 0.00805512 -0.23359847
000090 0b f1 e0 dd c6 f9 0b 15 f4 15 ba ec 1d db 0e dc
       0.08860632 -0.120826796 -0.25776383 -0.2819292 -0.46719694 -0.056385837 0.08860632 0.16915752 -0.09666143 0.16915752 -0.5638584 -0.1611024 0.23359847 -0.29803944 0.112771675 -0.28998432
0000a0 d1 f5 fe cc 19 cc 04 14 b7 e5 fe f8 cc 02 d1 ea
       -0.37859064 -0.08860632 -0.01611024 -0.41886622 0.20137799 -0.41886622 0.03222048 0.1611024 -0.5880237 -0.21748823 -0.01611024 -0.06444096 -0.41886622 0.01611024 -0.37859064 -0.17721264
0000b0 14 f1 16 e1 f3 e0 d4 0c 03 e4 f9 12 18 e2 0d 04
       0.1611024 -0.120826796 0.17721264 -0.24970871 -0.104716554 -0.25776383 -0.35442528 0.09666143 0.024165358 -0.22554335 -0.056385837 0.14499216 0.19332287 -0.24165359 0.104716554 0.03222048
0000c0 dd de d2 d3 ba c1 dc 26 bd dd e6 d2 e8 dd 13 9d
       -0.2819292 -0.27387407 -0.37053552 -0.3624804 -0.5638584 -0.5074726 -0.28998432 0.30609456 -0.539693 -0.2819292 -0.20943311 -0.37053552 -0.19332287 -0.2819292 0.15304728 -0.79745686
0000d0 fa fb d6 f1 e2 1a 20 d8 dd 03 8b 10 11 cf cb 09
       -0.048330717 -0.0402756 -0.33831504 -0.120826796 -0.24165359 0.20943311 0.25776383 -0.3222048 -0.2819292 0.024165358 -0.94244903 0.12888192 0.13693704 -0.39470086 -0.42692134 0.07249608
0000e0 18 f0 14 df dd 16 0f df 07 d3 01 15 09 14 e4 f7
       0.19332287 -0.12888192 0.1611024 -0.26581895 -0.2819292 0.17721264 0.120826796 -0.26581895 0.056385837 -0.3624804 0.00805512 0.16915752 0.07249608 0.1611024 -0.22554335 -0.07249608
0000f0 d8 da d2 c3 11 00 dd 14 c1 1f e5 d6 ef 0b cf d4
       -0.3222048 -0.30609456 -0.37053552 -0.4913623 0.13693704 0.0 -0.2819292 0.1611024 -0.5074726 0.24970871 -0.21748823 -0.33831504 -0.13693704 0.08860632 -0.39470086 -0.35442528

sequential_11/conv2d_44/Conv2D f4 [32, 3, 3, 3]
000000 aa 18 46 be 6f 82 12 be da 1e 76 3e 84 3e f2 bd
       -0.19345346 -0.14307569 0.24035206 -0.1182833
000010 51 6c 00 be 87 e3 0a 3e 08 1f 8c 3a 8d 46 5e be
       -0.1254132 0.13563357 0.00106904 -0.217066
000020 af 3c 8c 3e 9a 2d 29 3e 74 a3 79 3d fe c9 00 3c
       0.27390048 0.16521302 0.060946897 0.007860659
000030 75 1d 0a 3d 8a 83 98 3d 5f a5 86 bd f6 33 95 3d
       0.0337195 0.07446964 -0.06574511 0.072853014
000040 4c 77 03 3e d9 51 c6 bd 62 53 58 3d dc be 21 be
       0.12838477 -0.0968358 0.052813895 -0.15795463
000050 7e 9a 93 3e 69 ad 01 3e 1a e8 2a be 17 0e 5d 3e
       0.28828806 0.12663807 -0.16690102 0.21587406
000060 27 bc a7 3d e3 fc 2d bb e6 10 b0 3e c3 70 52 be
       0.08190184 -0.0026548437 0.34387892 -0.20550828
000070 19 cc 8c bd 4b 89 b3 be ba 0f c8 bb bd 10 34 be
       -0.06874866 -0.35065684 -0.0061053904 -0.1758451
000080 68 ef b2 be 74 4b 0d 3e 7c ed ca 3d ce 9c 10 be
       -0.34948277 0.13798314 0.09908578 -0.14122316
000090 e7 40 04 be 8a b2 1b be 60 6d c5 be 11 ad 18 be
       -0.12915383 -0.15204826 -0.3856001 -0.1490977
0000a0 82 db 16 be 0a 86 80 be 76 f7 5f 3d 95 d1 cb bd
       -0.14732173 -0.25102264 0.054679357 -0.09952084
0000b0 d4 7e 35 be b4 08 2c 3b 35 4e b9 3d 72 95 93 be
       -0.17724162 0.0026250305 0.0904812 -0.28824955
0000c0 c9 c1 b7 3d a9 53 d8 3d 70 63 c6 be 3e df dc 3a
       0.089725085 0.10562832 -0.3874774 0.0016851199
0000d0 a6 a6 9c bd b4 cf eb 3c 60 f5 1c be 00 0b 8e bd
       -0.07648973 0.028785564 -0.15327978 -0.06935692
0000e0 89 2d 3a be 56 58 59 be 25 9d 41 bd 37 4c 72 be
       -0.18181433 -0.21225104 -0.047269005 -0.23661886
0000f0 78 7e 43 be bc 2f c5 bd d5 f9 7b bd 40 8f 15 be
       -0.19091213 -0.09628245 -0.061517555 -0.14605427
000100 8e f5 0e bd 7b e5 c5 bd 18 bb bc bd 01 10 c8 bd
       -0.034902148 -0.096629106 -0.09215373 -0.097686775
000110 9c b6 51 be 70 45 05 bd e1 8c 14 bd fc e9 37 be
       -0.20479816 -0.032536924 -0.036267165 -0.17960352
000120 da 2d ee 3d 03 fa 2f 3d 05 40 9b be 81 fd af 3d
       0.11629839 0.04296304 -0.3032228 0.08593274
000130 ca 2d a8 3d c9 34 c2 be c8 67 94 bd cc 00 7a 3d
       0.082118586 -0.37930897 -0.07246357 0.061035916
000140 8b 3c 99 be 7d 84 bb bd 15 47 a5 bc db d3 26 3d
       -0.29929003 -0.091561295 -0.020175496 0.040729385
000150 11 60 5b bd 88 34 a3 3d 74 21 20 3d 12 a6 9c 3b
       -0.053558413 0.07969004 0.039094403 0.0047805393
000160 55 45 5a be da a8 ac 3e d8 89 2e 3e be 2c 14 be
       -0.2131551 0.33722574 0.1704477 -0.14470193
000170 36 d9 ae 3d f3 0c 26 3e e9 13 a8 3d 74 44 04 3e
       0.085375234 0.16215877 0.082069226 0.12916738
000180 a0 cd 85 bd 77 0d e5 bd 9e a6 87 3e f3 16 b6 3c
       -0.065333605 -0.11184209 0.26494306 0.02222774
000190 ad 24 eb bd 2c 48 05 3e 11 ba bc 3d c4 3a 13 3e
       -0.11481605 0.13015813 0.09215177 0.14377886
0001a0 2b fa 27 bd 57 c2 22 be 0e 02 18 be 45 38 8e 3e
       -0.041010063 -0.15894447 -0.14844534 0.27777305
0001b0 a3 9e 30 3e b1 85 3d bd 13 2d 0b be 2c 98 e1 3d
       0.17248015 -0.046270076 -0.13591413 0.110153526
0001c0 0f 26 f0 bd 62 a7 9b bd ce b0 d8 3d f3 e3 56 3d
       -0.11726009 -0.07600285 0.10580598 0.052463483
0001d0 5c 9f d8 3d 16 9a 04 3e 64 e5 9e bd 8f 62 dc bd
       0.105772704 0.12949404 -0.077585965 -0.10760986
0001e0 05 79 68 3c 1f b4 fc bd 7e e1 70 be 68 eb 0f be
       0.01418901 -0.12339043 -0.23523518 -0.14054644
0001f0 d9 d9 8e bd 69 d5 3d 3c 73 02 39 bd 53 c7 c9 bd
       -0.06975145 0.0115865255 -0.04516835 -0.09852471
000200 e7 f8 e4 3d 10 c2 53 3c 1e 38 b9 3c 0d f5 75 be
       0.11180287 0.012924686 0.022609767 -0.2401926
000210 b6 91 8b bd e5 4f aa bd 0b 0e 0f 3e 89 8b 34 3e
       -0.068149015 -0.0831602 0.139702 0.17631353
000220 d4 fb 40 bd 45 ef 88 3e 65 c2 c1 bd 7c c3 e1 3d
       -0.047115162 0.26745048 -0.09460906 0.11023614
000230 b9 39 3e 3f 3e c4 0d bd 72 e7 7f bc 60 03 10 3f
       0.7430683 -0.03461098 -0.015619146 0.5625515
000240 17 4b 95 3d e1 21 47 3e 5a 26 d0 3d 43 48 9c 3c
       0.07289713 0.19446518 0.10163565 0.019077426
000250 fc 9d 82 3d fb 1b 2b 3f 52 7a 04 3d 81 03 cd 3d
       0.063777894 0.6683957 0.032343216 0.10010434
000260 50 3b 27 3f dc 33 eb 3d fd e0 0b bd 84 73 a8 3e
       0.6532488 0.11484501 -0.034150112 0.3290063
000270 5a 09 be 3c 20 b9 af bb 78 a3 30 3f 12 28 92 bd
       0.023197819 -0.005362645 0.68999434 -0.07136549
000280 55 52 91 bd 5c df 11 3f c6 63 ab 3b 5f 20 81 3d
       -0.07095782 0.56981444 0.0052304 0.063050024
000290 10 d7 32 be 0f d2 5b bc 19 99 2c 3d 53 e4 a4 3d
       -0.17464852 -0.013416781 0.042138193 0.08051362
0002a0 55 ff 50 bd c6 47 08 3c e8 3b cb bd 60 59 1f be
       -0.051024754 0.008317893 -0.099235356 -0.15561438
0002b0 ab 7d 96 bd 99 9c 84 bc 62 4f 10 be 8e ef b4 3c
       -0.07348188 -0.016187953 -0.14092782 0.022086885
0002c0 dd 9f 9c bd a8 ed 92 bd 59 5c 86 bd c9 ac 71 bd
       -0.07647679 -0.071742356 -0.06560583 -0.05900267
0002d0 00 e1 e8 3b 6e d6 1c be 05 c3 11 be ed 6b 0d 3d
       0.0071069 -0.15316173 -0.1423455 0.034526754
0002e0 62 c1 22 be 8b 0d 9b 3c f3 13 c4 3d af b2 b8 3c
       -0.15894082 0.018927356 0.095741175 0.02254614
0002f0 b4 ec 67 bd f4 60 93 bd 1d a5 97 3d f3 06 12 3d
       -0.056622222 -0.07196227 0.0740454 0.03565116
000300 d9 d4 e4 bd 98 9f 93 bd c4 46 79 be b1 f1 13 3e
       -0.1117341 -0.072081745 -0.24343401 0.14447667
000310 eb 0e 0e 3e 8c b9 74 bc 46 d8 ed bc 3a 9b 42 3d
       0.13872878 -0.014936816 -0.029033791 0.047511317
000320 a9 51 88 3a 10 56 c0 bd c3 8b af 3d 11 73 8e be
       0.0010400313 -0.09391415 0.08571579 -0.27822164
000330 cd c1 67 3d eb 98 21 bc d5 ac af 3a 04 38 18 be
       0.056581307 -0.009863119 0.0013402948 -0.14865118
000340 88 64 d2 bc 30 ef 99 bd 08 7e 0b be 4c da ef bd
       -0.025682703 -0.075163245 -0.13622296 -0.11711559
000350 7b a1 b7 bc 27 78 d1 bb 17 b1 57 3d e8 5e 81 3d
       -0.022415867 -0.006392497 0.05265912 0.0631693
000360 6d a4 78 be 89 d0 bf bd 42 4e 7e be 3c 69 a3 be
       -0.24281473 -0.09365947 -0.2483454 -0.31916225
000370 6a b1 12 be 3f 41 99 bd b1 23 4a bc 41 a8 42 3d
       -0.1432549 -0.07483148 -0.012337611 0.04752374
000380 5a 02 ec bd f5 75 b1 bd 6e 5d a5 3d b4 1e a7 be
       -0.11523886 -0.08665077 0.08074461 -0.32640612
000390 90 ef 89 be d8 61 f4 bd 4a 89 3a be 2d 73 0b be
       -0.26940584 -0.11932725 -0.18216434 -0.13618155
0003a0 46 44 17 3e 88 6c 7d be 94 35 99 bd 1d 6b ec 3d
       0.14772138 -0.24748433 -0.07480922 0.11543868
0003b0 67 d8 76 be c6 09 c2 3d 1c 98 2f 3d c7 dc 6f be
       -0.24105988 0.094745204 0.042869672 -0.23424064
0003c0 0b 1f 32 bd 23 07 17 3e c5 74 48 bd 2b 01 2d be
       -0.043486636 0.14748816 -0.048939485 -0.16894977
0003d0 61 6e 90 bd 60 66 2c 3d cb e5 cf bd cb 80 9c 3d
       -0.07052303 0.04208982 -0.101512514 0.07641753
0003e0 9c 18 53 3c 06 09 57 be 2b b6 88 3d c8 42 fc bd
       0.012884285 -0.20999536 0.06675371 -0.12317425
0003f0 7a a5 9c 3d 5d b9 88 bb 52 01 c7 bd d7 10 51 be
       0.0764875 -0.0041724877 -0.09717049 -0.2041658

sequential_11/conv2d_45/Conv2D i1 [64, 3, 3, 32]
000000 0a e9 03 f8 24 2a 09 f5 bb 0b db 17 16 d4 07 0e
       10 -23 3 -8 36 42 9 -11 -69 11 -37 23 22 -44 7 14
000010 ea 11 02 43 44 52 16 f1 2c 35 5c 53 fe 2d 21 f5
       -22 17 2 67 68 82 22 -15 44 53 92 83 -2 45 33 -11
000020 44 15 f7 07 38 da f4 19 fa df 13 11 c5 0b 60 09
       68 21 -9 7 56 -38 -12 25 -6 -33 19 17 -59 11 96 9
000030 ea e3 51 24 4d fa 08 e2 79 24 44 53 d7 0d fb 71
       -22 -29 81 36 77 -6 8 -30 121 36 68 83 -41 13 -5 113
000040 f2 ad f0 1f 1c f3 f5 e5 e8 1b e7 f1 45 cf 19 f7
       -14 -83 -16 31 28 -13 -11 -27 -24 27 -25 -15 69 -49 25 -9
000050 ef e3 eb 37 d1 19 b6 fa 83 05 d1 d1 e3 de ea 22
       -17 -29 -21 55 -47 25 -74 -6 -125 5 -47 -47 -29 -34 -22 34
000060 09 18 c8 e1 f1 14 25 fa df 08 d3 13 3b e9 fd f0
       9 24 -56 -31 -15 20 37 -6 -33 8 -45 19 59 -23 -3 -16
000070 ff f4 fa d1 1d 16 fd e5 2d 0b 35 15 ea 14 1e b3
       -1 -12 -6 -47 29 22 -3 -27 45 11 53 21 -22 20 30 -77
000080 f3 2d e9 e6 0e d4 1d 17 0a e2 13 11 f0 f1 71 12
       -13 45 -23 -26 14 -44 29 23 10 -30 19 17 -16 -15 113 18
000090 13 f5 45 d0 31 10 04 c1 65 00 2c 37 d7 15 fc 3a
       19 -11 69 -48 49 16 4 -63 101 0 44 55 -41 21 -4 58
0000a0 bd e9 0b fd d8 13 ee 0b 0b 0f e0 e1 13 e7 10 da
       -67 -23 11 -3 -40 19 -18 11 11 15 -32 -31 19 -25 16 -38
0000b0 e1 fe e8 11 d9 ea 93 f2 81 f5 f1 d2 fd c8 c1 07
       -31 -2 -24 17 -39 -22 -109 -14 -127 -11 -15 -46 -3 -56 -63 7
0000c0 d0 e8 16 f5 eb 3a f7 da cc ec e1 09 45 de c2 e6
       -48 -24 22 -11 -21 58 -9 -38 -52 -20 -31 9 69 -34 -62 -26
0000d0 ff 10 e2 ee f8 15 fe f2 0d 32 41 09 f5 26 21 af
       -1 16 -30 -18 -8 21 -2 -14 13 50 65 9 -11 38 33 -81
0000e0 b4 34 d5 fd 0b c9 08 fa 1f fd de 09 ed 12 59 0e
       -76 52 -43 -3 11 -55 8 -6 31 -3 -34 9 -19 18 89 14
0000f0 10 03 36 03 28 18 1f d6 40 1f 46 01 c3 2e ec 26
       16 3 54 3 40 24 31 -42 64 31 70 1 -61 46 -20 38

sequential_11/conv2d_46/Conv2D i1 [128, 3, 3, 64]
000000 05 c8 1d 46 16 d8 dd e1 2d c8 bc ce e9 e7 fd e8
       5 -56 29 70 22 -40 -35 -31 45 -56 -68 -50 -23 -25 -3 -24
000010 fe 17 c6 c3 1f 09 d4 cd 0d cf f0 f4 eb fa bf fc
       -2 23 -58 -61 31 9 -44 -51 13 -49 -16 -12 -21 -6 -65 -4
000020 03 1b 03 f1 01 f2 fd f0 cd fe f6 e3 ab cd e5 40
       3 27 3 -15 1 -14 -3 -16 -51 -2 -10 -29 -85 -51 -27 64
000030 fe c7 e8 ef 23 e5 c0 91 f5 a9 37 aa bc 49 06 2c
       -2 -57 -24 -17 35 -27 -64 -111 -11 -87 55 -86 -68 73 6 44
000040 b2 dd ee f2 e9 f7 f3 d8 09 01 f4 c8 04 cd a2 de
       -78 -35 -18 -14 -23 -9 -13 -40 9 1 -12 -56 4 -51 -94 -34
000050 ba 0b f8 17 18 dd bd e9 b0 81 01 e6 03 e7 e4 0c
       -70 11 -8 23 24 -35 -67 -23 -80 -127 1 -26 3 -25 -28 12
000060 fa e2 fe fd 10 0b 11 08 ef e4 17 f1 ef e5 09 ec
       -6 -30 -2 -3 16 11 17 8 -17 -28 23 -15 -17 -27 9 -20
000070 f3 09 de f8 ed f0 05 e3 ba f1 21 e3 d8 01 f4 01
       -13 9 -34 -8 -19 -16 5 -29 -70 -15 33 -29 -40 1 -12 1
000080 96 18 eb d8 d9 18 db 3d a6 46 f4 1d 14 09 d0 02
       -106 24 -21 -40 -39 24 -37 61 -90 70 -12 29 20 9 -48 2
000090 88 ce 1c bd 0c e8 91 11 8c 0f 19 0b d4 ea 17 f4
       -120 -50 28 -67 12 -24 -111 17 -116 15 25 11 -44 -22 23 -12
0000a0 cb 0d a8 1d d1 33 12 c9 ef 38 27 19 32 23 08 9f
       -53 13 -88 29 -47 51 18 -55 -17 56 39 25 50 35 8 -97
0000b0 d8 f8 f0 c2 3c c2 e9 32 f7 03 f0 2f 0b dd fa d4
       -40 -8 -16 -62 60 -62 -23 50 -9 3 -16 47 11 -35 -6 -44
0000c0 2b de 2c 35 14 bf 00 f3 1d bd bf ec c8 be 25 ec
       43 -34 44 53 20 -65 0 -13 29 -67 -65 -20 -56 -66 37 -20
0000d0 24 30 c7 b2 2c cd d0 b6 1f dc d9 19 07 08 c2 14
       36 48 -57 -78 44 -51 -48 -74 31 -36 -39 25 7 8 -62 20
0000e0 2b e8 17 d6 22 c9 e3 f2 bb 01 08 b2 9c ca d6 40
       43 -24 23 -42 34 -55 -29 -14 -69 1 8 -78 -100 -54 -42 64
0000f0 1d a4 fa 1d 35 06 c1 9e da 98 47 b8 b1 42 e2 43
       29 -92 -6 29 53 6 -63 -98 -38 -104 71 -72 -79 66 -30 67

sequential_11/conv2d_47/Conv2D i1 [256, 3, 3, 128]
000000 bf e6 db ed ed 0a ce 0b d8 02 11 f7 cb df 00 07
       -65 -26 -37 -19 -19 10 -50 11 -40 2 17 -9 -53 -33 0 7
000010 02 d9 f9 f9 01 0f fe 0e fa be 00 f0 da ce cc f7
       2 -39 -7 -7 1 15 -2 14 -6 -66 0 -16 -38 -50 -52 -9
000020 ed 07 f4 4d f5 f5 08 f6 23 03 d2 de e1 27 be 25
       -19 7 -12 77 -11 -11 8 -10 35 3 -46 -34 -31 39 -66 37
000030 09 18 ef f7 f1 fe f0 15 ed 1b 1d b5 0b cc f5 1d
       9 24 -17 -9 -15 -2 -16 21 -19 27 29 -75 11 -52 -11 29
000040 ee 21 0b ff 08 0b f3 15 f9 f0 02 23 ed ef 31 ae
       -18 33 11 -1 8 11 -13 21 -7 -16 2 35 -19 -17 49 -82
000050 fc f5 fd fb ea fb ed 0d d0 ec f8 03 0a f6 25 0f
       -4 -11 -3 -5 -22 -5 -19 13 -48 -20 -8 3 10 -10 37 15
000060 e5 f2 e2 06 3b 48 e5 1e d5 d6 cb fd e9 2a cf 06
       -27 -14 -30 6 59 72 -27 30 -43 -42 -53 -3 -23 42 -49 6
000070 00 2f d3 c9 d1 38 3d e6 dd 36 f2 f9 e7 46 e6 f1
       0 47 -45 -55 -47 56 61 -26 -35 54 -14 -7 -25 70 -26 -15
000080 fe e4 f9 ee ed 1c fc 05 0d 13 1e 05 f0 1e f3 18
       -2 -28 -7 -18 -19 28 -4 5 13 19 30 5 -16 30 -13 24
000090 08 fe f2 e9 04 f2 08 e7 ff b9 f6 0f c7 eb 08 c7
       8 -2 -14 -23 4 -14 8 -25 -1 -71 -10 15 -57 -21 8 -57
0000a0 c3 0e 0f f2 11 09 fd ef 11 03 c7 1e da ca f7 28
       -61 14 15 -14 17 9 -3 -17 17 3 -57 30 -38 -54 -9 40
0000b0 03 15 e9 00 f1 f8 f3 1f f3 08 f1 11 02 19 00 f8
       3 21 -23 0 -15 -8 -13 31 -13 8 -15 17 2 25 0 -8
0000c0 31 ec 01 d5 fe ff 14 fe 05 ed ff bd ee 05 3b f3
       49 -20 1 -43 -2 -1 20 -2 5 -19 -1 -67 -18 5 59 -13
0000d0 f8 f5 07 01 07 1a ef f5 f1 1c 04 02 ee 17 e7 f1
       -8 -11 7 1 7 26 -17 -11 -15 28 4 2 -18 23 -25 -15
0000e0 e2 f4 00 f6 05 0d 2b d2 ab 04 cd f4 00 19 06 0b
       -30 -12 0 -10 5 13 43 -46 -85 4 -51 -12 0 25 6 11
0000f0 0f 08 d5 c7 08 f5 12 e1 03 33 87 0f c4 2a c7 e4
       15 8 -43 -57 8 -11 18 -31 3 51 -121 15 -60 42 -57 -28
