tflite_models/sign.tflite (tflite, 482736 bytes, 14 tensors)

dense_9/bias f4 [128]
-0.004156754 -0.03293052 -0.046496805 -0.01643458 0.04048456 -0.030996578 -0.0034767843 -0.03620497
-0.025637366 -0.0149403615 -0.038842324 -0.0040788944 -0.018269345 -0.012947807 0.0031056749 0.08908355
0.054464664 0.001432817 0.03786301 0.03722866 -0.015461384 0.054458123 0.0029923075 0.0027668152
-0.006674476 -0.0439413 0.00050971453 -0.070213854 -0.013140844 -0.034703396 0.046386797 0.009571336
-0.013206305 0.062596016 -0.014460535 0.05898434 -0.06659857 -0.033914067 0.010420433 -0.08318658
-0.013648049 -0.008602113 -0.036771934 -0.025298292 -0.011822442 -0.006016085 -0.033783462 0.022036206
0.0054458496 0.02947659 -0.08550225 -0.066052705 -0.014991757 -0.061825115 0.003779755 -0.03340523
-0.0030557243 0.020065112 -0.031855725 -0.036332585 -0.039002657 0.04343694 0.011721768 0.061092395
-0.0010456459 0.009816886 -0.03007349 -0.03766654 -0.006642812 -0.026131751 -0.0155682815 -0.03847991
-0.0076347324 0.0029536318 0.008368211 -0.014998149 -0.054998673 -0.020118468 -0.028860658 -0.013178078
-0.024689784 0.0039947247 0.08323209 0.017642219 0.0032103306 -0.062730044 -0.017835915 -0.023222959
0.01415032 0.007826878 -0.048449144 -0.096108615 -0.017990995 -0.034272015 -0.012552428 -0.06513806
0.00075141643 -0.002140131 -0.02162611 -0.027669411 -0.03462682 -0.068478465 -0.033457313 0.10491707
-0.014962523 0.061693862 0.0016537503 0.0020230198 -0.058724795 0.01206023 -0.0010214495 -0.056606114
0.04462695 -0.0065076025 -0.049154483 -0.020546312 0.06785686 -0.030991854 0.0024048744 -0.08493261
-0.018155785 -0.048366487 -0.06462955 -0.03534868 -0.06847258 -0.030073576 -0.063333966 -0.014747496
00000000: 6135 88bb 27e2 06bd 6f73 3ebd d0a1 86bc
00000010: 23d3 253d 89ec fdbc c3da 63bb aa4b 14bd
00000020: 7405 d2bc 6bc8 74bc 2119 1fbd 3fa8 85bb
00000030: 98a9 95bc 0a23 54bc 9488 4b3b 7071 b63d
00000040: 5716 5f3d 5ccd bb3a 3e16 1b3d 147d 183d
00000050: bf51 7dbc 7b0f 5f3d 971a 443b 7553 353b
00000060: 90b5 dabb cbfb 33bd 5d9e 053a 48cc 8fbd
00000070: b24c 57bc 2625 0ebd 1500 3e3d 18d1 1c3c
00000080: 425f 58bc 5732 803d e1eb 6cbc 9099 713d
00000090: d564 88bd 7ae9 0abd 77ba 2a3c ba5d aabd
000000a0: 119c 5fbc e1ef 0cbc 2b9e 16bd 5d3e cfbc
000000b0: eab2 41bc 9422 c5bb 8760 0abd 4685 b43c
000000c0: 1973 b23b e478 f13c ce1b afbd a446 87bd
000000d0: fd9f 75bc 553c 7dbd c4b5 773b ecd3 08bd
000000e0: 8c42 48bb 975f a43c 267b 02bd 7ad1 14bd
000000f0: 40c1 1fbd efea 313d a90c 403c 053c 7a3d
00000100: 0e0e 89ba 01d7 203c ae5c f6bc 3b48 1abd
00000110: f2ab d9bb 4112 d6bc 1b12 7fbc 1c9d 1dbd
00000120: c72c fabb b891 413b d21a 093c ccba 75bc
00000130: 4a46 61bd 7ccf a4bc 306d ecbc dee8 57bc
00000140: 3b42 cabc 2ee6 823b 9675 aa3d 6a86 903c
00000150: 6964 523b 9c78 80bd a01c 92bc 133e bebc
00000160: bed6 673c 4e3c 003c 9c72 46bd 98d4 c4bd
00000170: da61 93bc d060 0cbd b3a8 4dbc 1a67 85bd
00000180: b4fa 443a 7141 0cbb 3d29 b1bc f6aa e2bc
00000190: dad4 0dbd 703e 8cbd 890a 09bd c3de d63d
000001a0: 5f25 75bc b4b2 7c3d a7c2 d83a a494 043b
000001b0: 6989 70bd 4598 453c 28e2 85ba d0db 67bd
000001c0: c0ca 363d ba3d d5bb 3656 49bd bd50 a8bc
000001d0: 8af8 8a3d a1e2 fdbc 199b 1d3b 26f1 adbd
000001e0: 71bb 94bc f01b 46bd 7f5c 84bd c7c9 10bd
000001f0: 5a3b 8cbd dc5c f6bc 3db5 81bd 7b9f 71bc

dense_11/bias f4 [26]
0.040609896 0.11000867 0.0766966 -0.07110943 0.07583729 0.10430899 0.12918277 0.14084235
-0.0014134971 -0.033797488 0.13583387 0.056770608 0.13505383 -0.13050275 -0.117725685 -0.11080517
0.06274944 -0.090328306 -0.09914895 -0.09276127 -0.16141497 -0.054966703 -0.016210828 0.0007096383
-0.022346565 -0.04857711
00000000: 9056 263d 3a4c e13d 1b13 9d3d d2a1 91bd
00000010: 9550 9b3d f49f d53d 7d48 043e fa38 103e
00000020: 1845 b9ba 3c6f 0abd 0918 0b3e 4c88 683d
00000030: 8d4b 0a3e 83a2 05be 2a1a f1bd d2ed e2bd
00000040: c782 803d 0cfe b8bd 9b0e cbbd 9ff9 bdbd
00000050: f749 25be c424 61bd 92cc 84bc 0507 3a3a
00000060: 2510 b7bc cbf8 46bd

dense_10/bias f4 [64]
-0.07194019 -0.01172411 0.005615533 -0.04418321 -0.10029422 -0.028755005 0.15734228 -0.029532755
0.052809272 0.05661068 0.02217264 0.07976416 0.11415143 -0.027555231 -0.09101289 0.08246388
-0.02967962 0.040856257 -0.04092622 -0.036614906 0.03646851 0.05988255 -0.036425807 0.09553837
0.017481804 0.13308367 -0.07561037 -0.0018287997 0.07750416 -0.06130196 -0.006339301 0.0146155
-0.00046013977 0.06878449 -0.01313197 -0.018291892 0.085927844 0.014254085 0.0008838498 -0.057161443
-0.09188006 -0.052978255 -0.07183721 0.0058406065 -0.047762245 -0.024063982 0.053860314 -0.024277993
0.124674305 -0.06753294 0.018351473 -0.020286757 0.029497836 0.0237373 -0.029738449 -0.06617271
-0.015322651 -0.019075936 0.035020217 0.13886976 -0.0173587 0.20264477 0.079306066 -0.04346544
00000000: 6155 93bd 7b16 40bc 8102 b83b 74f9 34bd
00000010: 0e67 cdbd 9e8f ebbc 561e 213e adee f1bc
00000020: 894e 583d 9ae0 673d 65a3 b53c 645b a33d
00000030: 3ac8 e93d 82bb e1bc f764 babd d3e2 a83d
00000040: ad22 f3bc e458 273d 41a2 27bd 83f9 15bd
00000050: 0160 153d 6847 753d 3a33 15bd 9fa9 c33d
00000060: 0036 8f3c 1647 083e 9cd9 9abd 56b4 efba
00000070: 80ba 9e3d c417 7bbd e9b9 cfbb da75 6f3c
00000080: ea3e f1b9 e2de 8c3d 7927 57bc e1d8 95bc
00000090: f0fa af3d f789 693c 28b2 673a 1e22 6abd
000000a0: 9d2b bcbd baff 58bd 631f 93bd 8f62 bf3b
000000b0: 58a2 43bd d421 c5bc a29c 5c3d a4e2 c6bc
000000c0: 3e55 ff3d b64e 8abd d455 963c 6a30 a6bc
000000d0: 72a5 f13c ba74 c23c 0c9e f3bc 8f85 87bd
000000e0: db0b 7bbc 2345 9cbc 5c71 0f3d e033 0e3e
000000f0: d533 8ebc 1c82 4f3e 386b a23d d108 32bd

conv2d_15/bias f4 [256]
-0.027155628 -0.007059952 -0.060638618 -7.057345e-05 0.0073873634 -0.015445019 -0.029668353 -0.008671517
0.0007946903 0.022095429 -0.02220637 -0.025647031 -0.048523534 0.025790315 -0.045155182 -0.008773241
-0.010340955 -0.0225573 0.019734554 -0.013746483 0.039494283 0.06501957 -0.049984366 -0.0026621255
0.020568402 -0.03475846 -0.0059481184 -0.055715933 -0.021479642 -0.014796405 0.011528627 0.04417683
-0.018096915 0.050213046 0.017207693 -0.0065770396 -0.007222954 0.0016021403 -0.019000819 -0.011782619
-0.0073530893 -0.051181186 -0.013314752 -0.02072962 0.008458083 -0.012778944 -0.03553125 -0.027903408
-0.014055837 -0.045718614 -0.009038799 -0.021550411 -0.02015936 0.08652108 -0.044124447 0.11582932
-0.0362108 -0.009404226 -0.0704608 -0.03072982 -0.021880949 -0.0114235915 -0.006214109 0.021552151
-0.013409749 -0.008705283 -0.0061921715 -0.009987226 -0.008127201 -0.006827369 -0.03239769 -0.025201952
-0.011744056 -0.0050762435 -0.027554048 -0.009943528 -0.0073740976 0.065018125 0.040360667 0.048699662
0.037089806 0.022935374 -0.017163353 -0.019160828 -0.010999218 -0.0020346416 -0.005677655 -0.013425189
-0.020272797 0.058980916 -0.039792225 -0.020834068 -0.035939466 -0.014329979 -0.014477628 -0.013403404
-0.004827703 -0.021378534 -0.07092226 0.03350381 0.01115544 0.039548475 0.025809232 0.01345453
-0.020176252 -0.015092167 -0.03771642 -0.0107659185 0.043269582 -0.037713762 0.012606927 -0.058839563
-0.0081656445 -0.0025276379 -0.07197513 -0.040221285 -0.024838379 -0.006205823 0.07019553 -0.0070410427
-0.029979011 -0.0073009687 -0.009115243 -0.01786133 -0.008379429 0.024664728 -0.013828195 0.03488613
0.023634885 -0.0054611545 -0.023996059 -0.0069600027 -0.016286029 -0.011326382 -1.6811453e-05 -0.052855793
-0.009147598 -0.034150314 -0.0091897175 -0.02863818 -0.020624915 -0.04512318 -0.05949298 -0.029964413
0.010099406 0.06640412 -0.038819432 -0.012294816 -0.03819983 -0.019224092 -0.07723553 -0.016568167
-0.0014503982 -0.04387977 0.06839333 0.008771932 -0.024487734 -0.05879285 -0.03868877 -0.022929894
-0.04774721 -0.009558828 -0.04919967 -0.031909075 0.002376246 -0.017551722 -0.012795764 -0.04168844
0.05667168 -0.007479475 -0.008136857 -0.010450698 -0.09998973 -0.015502021 -0.019267349 -0.028463233
0.046885867 0.012154181 -0.04312294 -0.015714047 -0.014126095 -0.0092624165 -0.006727556 0.040622205
-0.04437589 -0.024844762 -0.04639906 -0.008618732 -0.010675245 -0.03315146 -0.020172564 -0.023901196
-0.0031039033 -0.009402878 -0.044119187 0.0027984793 -0.03580143 -0.0077209403 0.0072085806 -0.002685713
0.055678155 -0.031338897 -0.07564019 -0.037518054 0.067870446 0.022477517 -0.040986843 -0.054797757
-0.030788628 -0.009251598 -0.032417554 0.024969243 -0.016434323 -0.08133891 -0.04134225 0.021175096
-0.00844675 -0.064266294 -0.04874182 -0.0015399085 -0.036302615 0.0005912781 -0.016074019 -0.024163185
-0.017488822 -0.011911968 0.020309199 -0.04213817 -0.022175888 0.077439025 -0.011972792 -0.016473012
-0.077307954 -0.01962673 -0.0013443592 -0.011581561 -0.026252467 -0.008792175 -0.012331504 0.022890145
0.03903857 -0.0049255094 0.027796507 -0.0060608215 -0.03140522 0.06281101 0.028274776 -0.044217072
-0.0019759254 -0.0099891005 0.01362813 -0.00091350137 -0.002907901 -0.036231518 -0.024215003 0.009486845
00000000: 7b75 debc 2b57 e7bb 3360 78bd d500 94b8
00000010: b211 f23b 1b0d 7dbc 0c0b f3bc fa12 0ebc
00000020: c352 503a 7901 b53c 22ea b5bc b919 d2bc
00000030: 9dc0 46bd 3646 d33c a4f4 38bd a4bd 0fbc
00000040: 1c6d 29bc 16ca b8bc 5caa a13c ee38 61bc
00000050: c2c4 213d fb28 853d 68bc 4cbd 0e77 2ebb
00000060: 117f a83c e35e 0ebd 6fe8 c2bb 6436 64bd
00000070: 13f6 afbc 9f6c 72bc 91e2 3c3c c4f2 343d
00000080: fb3f 94bc 32ac 4d3d 26f7 8c3c 3584 d7bb
00000090: 88ae ecbb e8fe d13a 9ba7 9bbc e30b 41bc
000000a0: 2ff2 f0bb 5da3 51bd 1e26 5abc 2ad1 a9bc
000000b0: c593 0a3c c75e 51bc 3789 11bd b095 e4bc
000000c0: 744a 66bc 7143 3bbd 7917 14bc 7d8a b0bc
000000d0: 3e25 a5bc f731 b13d d6bb 34bd ec37 ed3d
000000e0: c751 14bd 2f14 1abc c04d 90bd 1abd fbbc
000000f0: ad3f b3bc 042a 3bbc b99f cbbb 238e b03c
00000100: 90b4 5bbc 9aa0 0ebc b3e7 cabb 76a1 23bc
00000110: f427 05bc 1fb8 dfbb 71b3 04bd 5374 cebc
00000120: 246a 40bc 9e56 a6bb 07b9 e1bc 2eea 22bc
00000130: 6aa2 f1bb 3928 853d 3a51 253d 4c79 473d
00000140: 7beb 173d f7e2 bb3c 299a 8cbc 2bf7 9cbc
00000150: 1036 34bc 9f57 05bb 9f0b babb 53f5 5bbc
00000160: 2313 a6bc f995 713d 2cfd 22bd 35ac aabc
00000170: 4335 13bd 4ac8 6abc 9333 6dbc f399 5bbc
00000180: b531 9ebb 0922 afbc b13f 91bd 4b3b 093d
00000190: 4ec5 363c 95fd 213d e26d d33c 6470 5c3c
000001a0: ab48 a5bc 2345 77bc 887c 1abd 8963 30bc
000001b0: 723b 313d bf79 1abd 498d 4e3c c101 71bd
000001c0: 32c9 05bc baa6 25bb b267 93bd 13bf 24bd
000001d0: db79 cbbc 375a cbbb adc2 8f3d 8cb8 e6bb
000001e0: 8b96 f5bc f73c efbb 1a58 15bc ed51 92bc
000001f0: df49 09bc af0d ca3c a78f 62bc c2e4 0e3d
00000200: f29d c13c 7cf3 b2bb 6293 c4bc bc10 e4bb
00000210: 476a 85bc 4a92 39bc 5206 8db7 517f 58bd
00000220: cfdf 15bc 33e1 0bbd 7890 16bc 9e9a eabc
00000230: 95f5 a8bc 15d3 38bd e9ae 73bd ee77 f5bc
00000240: fb77 253c e2fe 873d 2001 1fbd 3270 49bc
00000250: 6d77 1cbd d87b 9dbc a92d 9ebd f7b9 87bc
00000260: 4a1b beba 46bb 33bd cd11 8c3d 26b8 0f3c
00000270: 809a c8bc c5d0 70bd 1e78 1ebd 79d7 bbbc
00000280: 9492 43bd a19c 1cbc 9885 49bd 17b3 02bd
00000290: cbba 1b3b a1c8 8fbc 53a5 51bc 7fc1 2abd
000002a0: 9020 683d 6216 f5bb 7450 05bc 6839 2bbc
000002b0: 6ac7 ccbd 30fc 7dbc 8fd6 9dbc ba2b e9bc
000002c0: 650b 403d 5422 473c aea1 30bd bfba 80bc
000002d0: 2371 67bc 64c1 17bc d572 dcbb 7863 263d
000002e0: 7ec3 35bd 3e87 cbbc f10c 3ebd 9535 0dbc
000002f0: 39e7 2ebc d3c9 07bd ef40 a5bc 71cc c3bc
00000300: db6a 4bbb 870e 1abc 52b6 34bd b166 373b
00000310: 85a4 12bd f1ff fcbb f535 ec3b ca02 30bb
00000320: c70e 643d 375d 00bd 3ee9 9abd 88ac 19bd
00000330: a9ff 8a3d c522 b83c d2e1 27bd 9d73 60bd
00000340: 6f38 fcbc 0494 17bc 45c8 04bd 4c8c cc3c
00000350: 46a1 86bc 0495 a6bd 7e56 29bd 6577 ad3c
00000360: 3d64 0abc 0c9e 83bd 81a5 47bd c1d6 c9ba
00000370: 0db2 14bd 0000 1b3a a9ad 83bc dff1 c5bc
00000380: b844 8fbc 6a2a 43bc 7a5f a63c 1399 2cbd
00000390: 35aa b5bc 5a98 9e3d 8829 44bc 69f2 86bc
000003a0: a253 9ebd 3cc8 a0bc 3635 b0ba 96c0 3dbc
000003b0: 6a0f d7bc 0e0d 10bc 140a 4abc 1d84 bb3c
000003c0: e8e6 1f3d 2b66 a1bb 80b5 e33c db99 c6bb
000003d0: c3a2 00bd 0fa3 803d 81a0 e73c f61c 35bd
000003e0: 877e 01bb 53a9 23bc 8548 5f3c 0a78 6fba
000003f0: 7c92 3ebb 8067 14bd 8b5e c6bc b66e 1b3c

conv2d_14/bias f4 [128]
-0.008676087 -0.048905283 0.03961875 0.01340916 0.032921463 -0.010322729 0.06563063 0.023397384
0.005787702 -0.009556741 -0.011602058 0.019897377 0.029424753 -0.013326596 0.013538432 -0.0066724047
-0.028901687 -0.06539157 -0.029039437 -0.052755576 0.026544042 -0.006337698 0.029445035 0.025171435
-0.027744193 0.016063163 0.0027187255 -0.01267875 -0.032808837 -0.048014417 0.068829834 0.039407015
-0.010935459 -0.023389958 -0.045399852 -0.014674491 -0.021170901 -0.07326033 -0.057070535 -0.014626988
-0.0039940346 -0.008015306 -0.013169617 0.07712692 -0.0037357362 0.0102697965 -0.020001832 0.06761268
0.044891883 -0.03573733 -0.06803976 -0.045064207 0.07686381 -0.034363598 -0.0133606335 0.017672818
0.030317327 0.009134325 -0.05415858 -0.0059580975 0.022983193 -0.011118611 0.05231774 0.009705454
-0.05704256 0.06239471 0.0033114115 0.012325901 -0.06465711 0.00959546 0.022781854 -0.009116299
-0.03738372 0.025074514 0.009430942 0.012579788 0.019287199 -0.01222398 0.021721778 0.047311682
0.03994215 -0.0024624062 -0.05140416 -0.030190466 0.06593747 0.056645278 0.02567061 0.017470768
0.012555059 -0.012462757 0.0017112955 -0.038162425 0.045254894 -0.048178438 0.027715368 -0.011206405
0.031991623 -0.0035178554 -0.0070199408 -0.029647397 -0.06533826 -0.028389493 -0.037188444 0.026794462
-0.026560737 -0.046842348 -0.056172542 -0.06047207 0.048928857 -0.04784886 -0.07843384 -0.007287383
0.0042240173 0.058168706 -0.013854532 -0.035135016 -0.01074256 -0.02443293 0.02710735 0.0050547267
0.038022876 -0.026609775 -0.061381068 -0.009958356 -0.06254625 -0.008569228 -0.05362158 0.05471679
00000000: 2526 0ebc e850 48bd 4547 223d 18b2 5b3c
00000010: a8d8 063d aa20 29bc 5a69 863d dfab bf3c
00000020: c3a6 bd3b e193 1cbc 8f16 3ebc d3ff a23c
00000030: 2e0c f13c cb57 5abc 4dd0 5d3c 30a4 dabb
00000040: 3bc3 ecbc 04ec 85bd 1de4 edbc 3b16 58bd
00000050: e472 d93c 77ac cfbb b736 f13c 5334 ce3c
00000060: ca47 e3bc e596 833c a52c 323b 88ba 4fbc
00000070: 8f62 06bd c4aa 44bd a8f6 8c3d 4069 213d
00000080: a42a 33bc 4c9c bfbc 32f5 39bd 476d 70bc
00000090: 996e adbc 8309 96bd cbc2 69bd 09a6 6fbc
000000a0: 64e0 82bb a152 03bc 61c5 57bc b8f4 9d3d
000000b0: 41d3 74bb a642 283c e2da a3bc 8478 8a3d
000000c0: 8de0 373d 4e61 12bd 6e58 8bbd 3f95 38bd
000000d0: c66a 9d3d d8c0 0cbd 8fe6 5abc 96c6 903c
000000e0: 0b5c f83c 23a8 153c 63d5 5dbd 253c c3bb
000000f0: 4047 bc3c d62a 36bc 204b 563d a003 1f3c
00000100: 76a5 69bd 9891 7f3d 4404 593b 93f2 493c
00000110: f26a 84bd 4736 1d3c 03a1 ba3c 885c 15bc
00000120: ac1f 19bd 1169 cd3c 3d84 1a3c 751b 4e3c
00000130: 3000 9e3c 1747 48bc dff1 b13c e5c9 413d
00000140: 619a 233d 5260 21bb 2b8d 52bd ff51 f7bc
00000150: 390a 873d e104 683d 2c4b d23c db1e 8f3c
00000160: bcb3 4d3c 9730 4cbc 8c4d e03a 3450 1cbd
00000170: 325d 393d c156 45bd 570b e33c 129b 37bc
00000180: a609 033d d28b 66bb 8807 e6bb 19df f2bc
00000190: 11d0 85bd 1591 e8bc e952 18bd 0f80 db3c
000001a0: e795 d9bc c3dd 3fbd 2e15 66bd 90b1 77bd
000001b0: a069 483d 2bfd 43bd eca1 a0bd 00cb eebb
000001c0: a069 8a3b 4f42 6e3d 1efe 62bc bce9 0fbd
000001d0: 9001 30bc 9127 c8bc 3c10 de3c 1fa2 a53b
000001e0: e0bd 1b3d befc d9bc b76a 7bbd 5f28 23bc
000001f0: 4018 80bd f365 0cbc 4da2 5bbd b61e 603d

conv2d_13/bias f4 [64]
0.0048941206 -0.037517715 -0.06795663 0.004218326 -0.015766906 -0.014800363 -0.071524546 0.059032824
-0.036478624 -0.019131988 -0.015529906 -0.06253937 -0.035281043 -0.03161576 0.019483585 -0.028655035
0.0012214305 -0.08616104 -0.06419112 -0.07111832 0.030568616 0.066462465 -0.06350907 0.03197556
0.015352235 -0.037724912 -0.02126964 -0.07325385 -0.07887644 -0.0020951324 -0.05885158 -0.028345702
-0.0018455442 -0.08578486 0.012715794 0.0073387846 -0.01233122 -0.05391771 0.005070373 0.071345724
-0.039390992 0.0267881 -0.0587662 0.04559934 -0.08097661 -0.07994484 -0.07794491 0.0020617878
0.00059505814 -0.059531163 -0.0243647 -0.061789393 0.021064447 -0.06373797 -0.021882223 -0.08029105
-0.006724748 -0.019306637 0.026735624 -0.016344616 -0.031196369 -0.012985881 -0.024593873 -0.025587864
00000000: dc5e a03b 2dac 19bd d82c 8bbd e239 8a3b
00000010: 9929 81bc 397d 72bc 767b 92bd 67cc 713d
00000020: 9c6a 15bd b0ba 9cbc 2671 7ebc a414 80bd
00000030: db82 10bd 877f 01bd 0a9c 9f3c f7bd eabc
00000040: 6818 a03a 3375 b0bd a276 83bd 7ba6 91bd
00000050: 096b fa3c 791d 883d 0b11 82bd cef8 023d
00000060: f187 7b3c 7085 1abd ab3d aebc 1d06 96bd
00000070: f989 a1bd 7d4e 09bb 5b0e 71bd 3f35 e8bc
00000080: 30e6 f1ba f9af afbd e855 503c 307a f03b
00000090: e308 4abc d1d8 5cbd 5f25 a63b b51d 923d
000000a0: 7358 21bd b872 db3c d4b4 70bd 60c6 3a3d
000000b0: 11d7 a5bd 1fba a3bd 95a1 9fbd 0f1f 073b
000000c0: adfd 1b3a f3d6 73bd 7b98 c7bc e016 7dbd
000000d0: 598f ac3c 0e89 82bd 5942 b3bc a26f a4bd
000000e0: 465b dcbb f428 9ebc ab04 db3c 25e5 85bc
000000f0: 878f ffbc bcc2 54bc 1779 c9bc a49d d1bc

conv2d_12/bias f4 [32]
-0.0353575 0.07607161 -0.042425077 0.0019632785 0.008197957 -0.12271563 0.036506444 0.08747608
-0.036242533 -0.09139396 -0.028278932 -0.06782492 -0.029412132 -0.07430438 0.048887916 0.034288585
-0.07006069 -0.06361874 -0.04812292 -0.0490541 0.021999372 -0.08784433 -0.085521415 -0.032471366
0.017398335 -0.030799447 0.0018528531 -0.009796259 0.06643305 0.018908443 -0.012729181 0.074535005
00000000: 07d3 10bd 6fcb 9b3d ebc5 2dbd 59aa 003b
00000010: b950 063c 5552 fbbd c887 153d a926 b33d
00000020: 0d73 14bd c22c bbbd 38a9 e7bc cbe7 8abd
00000030: b6f1 f0bc e52c 98bd b23e 483d 3072 0c3d
00000040: fb7b 8fbd 8b4a 82bd 8a1c 45bd f4ec 48bd
00000050: 0738 b43c bae7 b3bd da25 afbd b200 05bd
00000060: f486 8e3c 1f4f fcbc 6fdb f23a 7d80 20bc
00000070: 0d0e 883d e1e5 9a3c 0e8e 50bc cfa5 983d

sequential_3/dense_9/MatMul i1 [128, 512] scale=0.0028768955 zero_point=0
-0.046030328 0.02589206 -0.028768955 -0.011507582 0.046030328 0.08342997 0.074799284 0.037399642
-0.09781445 0.014384477 0.08630686 -0.034522746 0.06904549 0.15535235 -0.06904549 0.10069134
-0.074799284 0.06904549 -0.028768955 0.040276535 0.034522746 -0.04315343 0.071922384 -0.005753791
0.023015164 -0.034522746 0.08342997 0.08342997 -0.05753791 -0.023015164 -0.037399642 0.08918376
0.023015164 -0.040276535 -0.04315343 0.13809098 -0.017261373 0.008630686 -0.07767618 -0.0661686
0.07767618 -0.034522746 -0.1265834 0.023015164 -0.13809098 0.028768955 -0.09493755 0.03164585
-0.034522746 0.0632917 -0.092060655 0.07767618 0.0661686 -0.21001337 0.05753791 -0.0028768955
0.11219893 0.0028768955 -0.05753791 -0.0661686 -0.014384477 0.07767618 -0.005753791 -0.1869982
0.0028768955 0.011507582 -0.011507582 0.08055307 -0.017261373 0.0661686 0.028768955 -0.092060655
-0.008630686 0.11219893 0.023015164 -0.06904549 -0.08055307 0.023015164 0.0 0.040276535
-0.06904549 0.034522746 0.028768955 0.092060655 -0.034522746 0.04315343 0.054661013 -0.08630686
0.005753791 -0.10932203 0.08342997 -0.06904549 0.08630686 -0.08055307 -0.11219893 -0.017261373
-0.0632917 0.028768955 -0.04315343 -0.060414806 0.04315343 0.054661013 -0.10356824 0.048907224
0.11507582 0.048907224 0.014384477 -0.07767618 0.014384477 -0.0028768955 -0.048907224 0.0661686
-0.005753791 0.08918376 0.074799284 0.048907224 -0.060414806 -0.014384477 0.0028768955 -0.005753791
0.09781445 0.014384477 -0.06904549 0.054661013 0.020138267 -0.12946029 -0.02589206 -0.14096788
0.06904549 0.0 -0.060414806 -0.0661686 0.054661013 -0.008630686 0.060414806 -0.040276535
0.005753791 0.10069134 -0.046030328 0.08630686 -0.04315343 0.048907224 0.08342997 0.005753791
0.06904549 -0.060414806 0.05753791 0.020138267 0.08918376 0.074799284 -0.05178412 -0.04315343
0.05753791 -0.037399642 -0.21864405 0.023015164 0.023015164 0.060414806 -0.074799284 -0.020138267
0.03164585 0.06904549 -0.074799284 -0.040276535 0.0028768955 -0.020138267 -0.0028768955 -0.1265834
-0.08630686 0.04315343 0.05753791 -0.0028768955 0.092060655 0.028768955 -0.017261373 0.14959857
0.017261373 0.10356824 0.037399642 -0.092060655 -0.09781445 0.08055307 0.05753791 -0.11795271
-0.011507582 0.005753791 -0.017261373 -0.09493755 0.054661013 0.017261373 -0.034522746 -0.017261373
-0.023015164 0.071922384 0.05753791 -0.02589206 -0.028768955 0.034522746 -0.10644513 -0.123706505
-0.011507582 0.008630686 -0.22727475 0.08918376 0.023015164 0.020138267 -0.060414806 0.04315343
-0.037399642 -0.08630686 0.0632917 -0.10356824 -0.023015164 0.014384477 -0.10069134 0.074799284
0.005753791 0.08342997 0.10644513 -0.05753791 0.05178412 0.034522746 -0.02589206 0.034522746
0.05178412 -0.074799284 0.05753791 0.005753791 0.06904549 -0.20713648 0.037399642 -0.060414806
-0.011507582 -0.08342997 -0.12082961 0.02589206 -0.020138267 0.034522746 0.03164585 0.023015164
-0.09493755 0.011507582 -0.03164585 0.0028768955 0.023015164 -0.0632917 0.046030328 0.0661686
-0.05753791 0.0 0.017261373 0.008630686 0.05753791 -0.060414806 0.040276535 -0.048907224
00000000: f009 f6fc 101d 1a0d de05 1ef4 1836 e823
00000010: e618 f60e 0cf1 19fe 08f4 1d1d ecf8 f31f
00000020: 08f2 f130 fa03 e5e9 1bf4 d408 d00a df0b
00000030: f416 e01b 17b7 14ff 2701 ece9 fb1b febf
00000040: 0104 fc1c fa17 0ae0 fd27 08e8 e408 000e
00000050: e80c 0a20 f40f 13e2 02da 1de8 1ee4 d9fa
00000060: ea0a f1eb 0f13 dc11 2811 05e5 05ff ef17
00000070: fe1f 1a11 ebfb 01fe 2205 e813 07d3 f7cf
00000080: 1800 ebe9 13fd 15f2 0223 f01e f111 1d02
00000090: 18eb 1407 1f1a eef1 14f3 b408 0815 e6f9
000000a0: 0b18 e6f2 01f9 ffd4 e20f 14ff 200a fa34
000000b0: 0624 0de0 de1c 14d7 fc02 fadf 1306 f4fa
000000c0: f819 14f7 f60c dbd5 fc03 b11f 0807 eb0f
000000d0: f3e2 16dc f805 dd1a 021d 25ec 120c f70c
000000e0: 12e6 1402 18b8 0deb fce3 d609 f90c 0b08
000000f0: df04 f501 08ea 1017 ec00 0603 14eb 0eef

sequential_3/dense_10/MatMul i1 [64, 128] scale=0.0034452667 zero_point=0
0.08613167 0.055124268 0.22394234 0.051679 -0.09991273 -0.13436541 -0.12747487 0.17915387
-0.079241134 -0.0068905335 -0.18259914 -0.058569536 0.096467465 -0.0206716 -0.1963802 0.2170518
0.024116866 0.096467465 -0.0034452667 -0.110248536 -0.12402961 0.1757086 0.2170518 -0.03445267
-0.055124268 0.12058434 -0.2273876 0.16192754 0.1136938 0.14814647 0.08613167 0.13436541
0.18259914 0.21360654 -0.18948968 -0.1136938 -0.12747487 -0.1653728 0.103358 0.103358
-0.079241134 -0.031007402 -0.0206716 -0.037897933 0.0206716 -0.04478847 -0.20327073 0.1963802
-0.0068905335 0.15159173 -0.1447012 0.017226335 -0.14814647 -0.110248536 0.13436541 -0.1653728
0.0413432 0.027562134 -0.093022205 -0.13436541 0.0826864 -0.12747487 -0.24805921 0.1653728
-0.1963802 0.0 0.037897933 -0.18948968 -0.04478847 0.04478847 -0.1447012 0.15159173
0.09991273 0.093022205 0.14125593 -0.103358 0.03445267 -0.110248536 -0.096467465 0.12058434
-0.027562134 0.0068905335 0.17915387 -0.096467465 -0.155037 0.12058434 0.06890534 -0.155037
-0.093022205 -0.13092014 0.15159173 0.19293493 -0.08613167 -0.0723506 -0.155037 -0.0723506
-0.058569536 0.14125593 -0.0826864 -0.17915387 -0.031007402 -0.103358 -0.19293493 -0.23772341
-0.19293493 -0.10680327 -0.055124268 0.03445267 0.017226335 -0.06546007 0.16192754 0.1136938
0.13092014 0.06546007 -0.0206716 -0.12747487 -0.2273876 -0.0826864 0.058569536 0.0826864
0.16881807 -0.051679 0.096467465 -0.0723506 0.11713907 0.093022205 0.0 -0.017226335
-0.12058434 0.09991273 -0.07579587 0.13781068 0.0103358 0.017226335 0.062014803 -0.21016127
-0.06890534 0.062014803 -0.0723506 -0.024116866 -0.017226335 -0.12058434 0.055124268 -0.13092014
-0.17915387 0.12402961 -0.17915387 0.12402961 0.1447012 0.013781067 -0.093022205 0.093022205
-0.0206716 0.15848227 -0.1447012 -0.058569536 -0.013781067 -0.19293493 0.13436541 0.017226335
0.0413432 0.0 0.03445267 0.031007402 -0.03445267 0.062014803 -0.0206716 0.0
-0.19982547 0.13436541 0.19293493 0.18948968 -0.13781068 0.031007402 -0.079241134 0.14125593
-0.024116866 0.07579587 0.037897933 -0.0206716 0.027562134 0.093022205 -0.16881807 -0.1447012
0.12747487 0.017226335 -0.14125593 -0.0413432 -0.079241134 -0.19982547 0.23772341 -0.12058434
-0.058569536 0.09991273 0.051679 0.12747487 -0.12747487 -0.0068905335 0.12402961 0.13436541
-0.0413432 -0.0826864 -0.0206716 0.14814647 -0.19293493 0.14125593 -0.031007402 -0.031007402
-0.1757086 0.16881807 -0.048233733 -0.17915387 -0.14125593 -0.22049707 0.08613167 0.12402961
-0.04478847 -0.08957694 -0.16192754 0.18948968 -0.013781067 0.0034452667 -0.06546007 0.14125593
-0.21360654 0.051679 0.079241134 -0.062014803 0.055124268 -0.18948968 -0.062014803 -0.1653728
-0.0723506 0.15848227 0.093022205 0.1136938 0.08613167 -0.19293493 -0.0723506 -0.13436541
-0.13436541 0.13436541 0.16192754 -0.06546007 -0.12402961 -0.03445267 -0.2170518 0.051679
0.093022205 -0.110248536 -0.13092014 -0.037897933 0.055124268 0.04478847 0.096467465 0.0
00000000: 1910 410f e3d9 db34 e9fe cbef 1cfa c73f
00000010: 071c ffe0 dc33 3ff6 f023 be2f 212b 1927
00000020: 353e c9df dbd0 1e1e e9f7 faf5 06f3 c539
00000030: fe2c d605 d5e0 27d0 0c08 e5d9 18db b830
00000040: c700 0bc9 f30d d62c 1d1b 29e2 0ae0 e423
00000050: f802 34e4 d323 14d3 e5da 2c38 e7eb d3eb
00000060: ef29 e8cc f7e2 c8bb c8e1 f00a 05ed 2f21
00000070: 2613 fadb bee8 1118 31f1 1ceb 221b 00fb
00000080: dd1d ea28 0305 12c3 ec12 ebf9 fbdd 10da
00000090: cc24 cc24 2a04 e51b fa2e d6ef fcc8 2705
000000a0: 0c00 0a09 f612 fa00 c627 3837 d809 e929
000000b0: f916 0bfa 081b cfd6 2505 d7f4 e9c6 45dd
000000c0: ef1d 0f25 dbfe 2427 f4e8 fa2b c829 f7f7
000000d0: cd31 f2cc d7c0 1924 f3e6 d137 fc01 ed29
000000e0: c20f 17ee 10c9 eed0 eb2e 1b21 19c8 ebd9
000000f0: d927 2fed dcf6 c10f 1be0 daf5 100d 1c00

sequential_3/dense_11/MatMul i1 [26, 64] scale=0.005601034 zero_point=0
0.24084446 -0.35286513 -0.25204653 -0.19603619 -0.13442482 -0.15682895 0.044808272 0.22404136
-0.34166306 0.12882379 -0.49849203 -0.044808272 -0.03920724 0.07841448 -0.050409306 -0.44808272
0.08401551 -0.022404136 -0.24644549 -0.089616545 -0.19603619 0.30245584 0.14002585 0.2968548
0.07841448 -0.16803102 -0.3136579 -0.10081861 0.16803102 -0.28565273 -0.24644549 -0.330461
-0.20163722 -0.123222746 -0.4088755 0.2800517 0.18483412 -0.05601034 -0.20163722 -0.27445066
-0.3136579 0.033606205 -0.3472641 0.14002585 -0.18483412 -0.330461 -0.2800517 -0.30245584
-0.330461 -0.089616545 0.033606205 0.26884964 0.29125378 -0.005601034 0.050409306 -0.3472641
-0.25764757 -0.11762171 -0.39767343 -0.011202068 -0.25764757 0.15682895 0.09521758 0.21283929
0.19603619 -0.10081861 0.050409306 -0.11202068 0.0 -0.50409305 -0.3136579 -0.24084446
0.016803103 0.14002585 -0.16803102 -0.016803103 0.16803102 -0.23524342 -0.25204653 -0.13442482
0.02800517 -0.011202068 -0.26884964 -0.011202068 -0.061611373 0.072813444 -0.106419645 -0.26884964
0.14562689 -0.11762171 -0.16803102 -0.21283929 -0.011202068 -0.089616545 -0.24084446 -0.22404136
-0.03920724 0.22964239 -0.106419645 0.033606205 0.2632486 -0.20723826 -0.21844032 0.15122792
-0.11202068 0.20163722 0.044808272 0.24644549 0.14002585 -0.28565273 -0.11202068 -0.12882379
0.16242999 0.19603619 0.12882379 0.061611373 -0.033606205 -0.19603619 -0.15122792 -0.022404136
-0.123222746 -0.123222746 -0.43688065 -0.15122792 -0.32485998 -0.33606204 0.22404136 0.14002585
-0.11202068 -0.02800517 -0.05601034 -0.23524342 0.044808272 -0.08401551 -0.20163722 0.106419645
-0.32485998 -0.20723826 -0.34166306 -0.2968548 -0.30245584 -0.42567858 -0.106419645 0.16242999
-0.22964239 0.106419645 0.09521758 -0.02800517 -0.46488583 0.06721241 -0.3472641 0.033606205
-0.02800517 -0.2968548 -0.20723826 -0.022404136 0.22404136 -0.24644549 0.22964239 0.050409306
-0.005601034 0.17363206 0.07841448 -0.21844032 -0.10081861 0.24084446 -0.089616545 0.17923309
-0.330461 -0.061611373 0.18483412 -0.14002585 -0.19603619 -0.24644549 -0.17363206 -0.15122792
-0.050409306 0.08401551 -0.09521758 -0.38647136 0.29125378 -0.3752693 0.13442482 -0.17363206
0.07841448 0.089616545 -0.15682895 -0.30245584 0.11202068 -0.123222746 -0.17923309 0.15122792
0.2968548 -0.13442482 -0.3136579 -0.2632486 0.08401551 -0.08401551 -0.10081861 -0.32485998
0.050409306 -0.005601034 -0.35846618 -0.033606205 0.123222746 -0.21844032 0.033606205 -0.005601034
0.07841448 0.16242999 0.10081861 -0.005601034 -0.31925893 0.2800517 0.20723826 -0.13442482
-0.106419645 0.106419645 0.12882379 -0.22964239 -0.072813444 0.14002585 -0.2968548 0.09521758
-0.07841448 -0.44808272 0.22404136 0.16803102 0.106419645 -0.12882379 -0.23524342 -0.16803102
-0.050409306 -0.40327445 0.14002585 0.15682895 -0.24084446 0.15122792 -0.022404136 -0.044808272
-0.17363206 0.03920724 -0.03920724 0.0 -0.2968548 0.15682895 -0.29125378 -0.09521758
-0.03920724 -0.25764757 -0.09521758 0.23524342 -0.13442482 -0.33606204 0.061611373 -0.20163722
00000000: 2bc1 d3dd e8e4 0828 c317 a7f8 f90e f7b0
00000010: 0ffc d4f0 dd36 1935 0ee2 c8ee 1ecd d4c5
00000020: dcea b732 21f6 dccf c806 c219 dfc5 ceca
00000030: c5f0 0630 34ff 09c2 d2eb b9fe d21c 1126
00000040: 23ee 09ec 00a6 c8d5 0319 e2fd 1ed6 d3e8
00000050: 05fe d0fe f50d edd0 1aeb e2da fef0 d5d8
00000060: f929 ed06 2fdb d91b ec24 082c 19cd ece9
00000070: 1d23 170b fadd e5fc eaea b2e5 c6c4 2819
00000080: ecfb f6d6 08f1 dc13 c6db c3cb cab4 ed1d
00000090: d713 11fb ad0c c206 fbcb dbfc 28d4 2909
000000a0: ff1f 0ed9 ee2b f020 c5f5 21e7 ddd4 e1e5
000000b0: f70f efbb 34bd 18e1 0e10 e4ca 14ea e01b
000000c0: 35e8 c8d1 0ff1 eec6 09ff c0fa 16d9 06ff
000000d0: 0e1d 12ff c732 25e8 ed13 17d7 f319 cb11
000000e0: f2b0 281e 13e9 d6e2 f7b8 191c d51b fcf8
000000f0: e107 f900 cb1c ccef f9d2 ef2a e8c4 0bdc

sequential_3/conv2d_12/Conv2D f4 [32, 3, 3, 3]
0.09250573 -0.07762601 -0.14692621 0.11786225 0.059717998 -0.19756822 0.16034284 -0.13546751
-0.090461515 -0.05566506 -0.12384629 -0.15915242 0.1333956 0.028603842 -0.2002423 0.15797634
-0.020190889 -0.048819654 -0.09895167 0.094508685 -0.19038123 -0.11725757 0.04815085 0.01705714
0.14582963 0.05330978 0.03970804 -0.072621405 -0.18209353 0.00029788367 0.059600417 -0.18901663
-0.07127819 -0.12238376 -0.12688084 0.015813595 -0.029036505 0.053555913 -0.052665506 -0.03893003
0.10822226 -0.24605678 -0.16478099 0.10758742 -0.07709969 -0.1158641 -0.1055806 0.21310112
-0.003375237 -0.13850442 0.31714162 -0.08669812 -0.048229575 0.18553321 0.07512482 -0.0774983
0.10340059 0.1134834 0.14402772 0.13585153 0.14530902 0.00507019 0.26607853 0.0029369975
0.09091975 0.23571387 -0.09209681 -0.08226953 0.25889224 0.076712966 0.09318353 0.2509012
0.020101434 0.10102225 0.21598062 0.051337443 0.027078167 0.11139824 0.02679588 0.0006306777
0.33053046 -0.06417596 -0.1710703 0.06684349 0.03688356 -0.07354023 0.05135749 -0.053076062
-0.17928663 0.24926245 0.10961466 0.017859915 0.030178292 0.1429168 -0.16280684 -0.19377151
-0.11112814 -0.015825728 0.15133712 -0.0078235 -0.14332542 -0.013055514 -0.06400413 -0.10948255
-0.1822704 0.04704452 -0.0075799683 -0.015540543 0.01976154 0.038412374 -0.07509549 0.16819288
0.3169275 -0.14621879 0.18388522 0.3386013 -0.1163951 -0.031097326 -0.11567799 0.0076757106
-0.1423633 -0.32313344 0.15601996 -0.18764989 -0.30047026 0.09202339 0.027318092 -0.035142355
0.19369654 -0.041586865 -0.04763319 0.028321246 -0.0016958113 -0.051917084 -0.07489161 0.010065408
0.16636162 0.02839204 -0.14737111 0.15133771 -0.2694089 0.03387972 0.14416656 0.2202299
-0.010036705 -0.035624582 -0.028978107 0.1010238 0.15699 -0.17077394 0.060072955 0.13504274
0.17967412 -0.08327552 0.1590506 -0.045002315 0.06330855 0.028698703 -0.17682093 -0.10341014
0.043979373 0.08388341 -0.10405311 -0.21992268 0.020601016 -0.16001295 -0.17332625 0.04488895
0.09391079 0.10951692 0.026447035 -0.07481039 0.0730413 -0.17737676 -0.06734545 -0.03685001
0.033306386 -0.15086232 -0.05955362 -0.033631776 0.17371733 -0.053240772 -0.069021896 0.17955196
-0.10783454 0.06253674 -0.01424409 -0.100809924 0.19458556 0.21153526 0.09753614 -0.13725987
-0.1277637 -0.13975354 -0.03654789 -0.09325577 -0.23841575 -0.11251678 0.04844907 0.037466362
-0.20271556 0.046537034 0.05743637 -0.13841611 0.104064085 -0.19132568 -0.075308345 0.13955472
-0.048625585 -0.15594304 -0.068635285 -0.096404605 -0.05022463 -0.10239752 -0.14800261 -0.17362797
-0.019730907 -0.13015057 -0.34232196 0.0065087336 -0.13332695 -0.27086407 0.01081892 0.10979343
-0.18526189 0.04689344 0.12899528 -0.18025428 0.0863866 0.005946401 -0.23346725 -0.061811723
0.03335911 -0.16832146 -0.0067789443 -0.009617499 -0.17130683 0.10103609 -0.05828928 -0.15371
-0.12826882 -0.049247976 -0.20958829 -0.07312856 -0.111222774 0.056893513 0.0394392 -0.08712689
0.07508585 -0.08192785 -0.10485762 0.03666217 -0.06333243 0.093438156 -0.033066902 0.096045464
00000000: a573 bd3d 63fa 9ebd d373 16be c361 f13d
00000010: dc9a 743d 534f 4abe ea30 243e ffb7 0abe
00000020: e343 b9bd 0c01 64bd 20a3 fdbd daf8 22be
00000030: db98 083e 9b52 ea3c 510c 4dbe 8dc4 213e
00000040: 5d67 a5bc 1ef7 47bd 2ca7 cabd c58d c13d
00000050: 4cf3 42be bd24 f0bd d339 453d 6abb 8b3c
00000060: 5d54 153e 5b5b 5a3d e6a4 223d 88ba 94bd
00000070: ba76 3abe 452d 9c39 911f 743d 938d 41be
00000080: 4dfa 91bd 56a4 fabd 0ded 01be 838b 813c
00000090: f7dd edbc 725d 5b3d c9b7 57bd 1875 1fbd
000000a0: a2a3 dd3d 4ff6 7bbe 59bc 28be cb56 dc3d
000000b0: 71e6 9dbd 284a edbd a43a d8bd 2e37 5a3e
000000c0: 1533 5dbb 1ad4 0dbe 6360 a23e c98e b1bd
000000d0: 608c 45bd 6bfc 3d3e 0bdb 993d 6eb7 9ebd
000000e0: b0c3 d33d fc69 e83d 017c 133e aa1c 0b3e
000000f0: e3cb 143e d623 a63b 723b 883e a47a 403b
00000100: 2234 ba3d fa5e 713e 419d bcbd ed7c a8bd
00000110: 868d 843e b01b 9d3d 02d7 be3d 1f76 803e
00000120: c3ab a43c c1e4 ce3d 062a 5d3e 3647 523d
00000130: 08d3 dd3c c324 e43d 0983 db3c 1054 253a
00000140: 4a3b a93e b06e 83bd 0d2d 2fbe 3de5 883d
00000150: 3713 173d 439c 96bd 3b5c 523d 4966 59bd
00000160: ea96 37be a83e 7f3e a77d e03d f54e 923c
00000170: 7738 f73c c858 123e d6b6 26be 0a6c 46be
00000180: 2697 e3bd f5a4 81bc 1ef8 1a3e 232e 00bc
00000190: e6c3 12be cbe6 55bc 9914 83bd 6338 e0bd
000001a0: 17a5 3abe c1b1 403d 6261 f8bb c39d 7ebc
000001b0: f4e2 a13c 4b56 1d3d aacb 99bd c13a 2c3e
000001c0: 5244 a23e 61ba 15be 684c 3c3e 265d ad3e
000001d0: 8e60 eebd d2bf febc 95e8 ecbd 8784 fb3b
000001e0: afc7 11be bf71 a5be b2c3 1f3e 4b27 40be
000001f0: 3dd7 99be c276 bc3d 31ca df3c 6ef1 0fbd
00000200: 6358 463e fd56 2abd 051b 43bd f501 e83c
00000210: fc45 deba 02a7 54bd c660 99bd 62e9 243c
00000220: b35a 2a3e 6c96 e83c 74e8 16be 46f8 1a3e
00000230: f7ef 89be 76c5 0a3d 66a0 133e f283 613e
00000240: fe70 24bc 15eb 11bd 7f63 edbc 91e5 ce3d
00000250: fdc1 203e 5ddf 2ebe 0f0f 763d a548 0a3e
00000260: 7efc 373e 5b8c aabd 29de 223e 5954 38bd
00000270: eaa7 813d 8b19 eb3c 8c10 35be b2c8 d3bd
00000280: b723 343d 11cb ab3d cc19 d5bd 6933 61be
00000290: 76c3 a83c 6fda 23be 707c 31be 7add 373d
000002a0: 4d54 c03d 684a e03d 74a7 d83c 3136 99bd
000002b0: ad96 953d 41a2 35be 69ec 89bd 09f0 16bd
000002c0: 476c 083d a77b 1abe 7fee 73bd 79c1 09bd
000002d0: f5e2 313e ff12 5abd 5a5b 8dbd 78dc 373e
000002e0: 5bd8 dcbd 4313 803d 0b60 69bc 6f75 cebd
000002f0: 7041 473e b39c 583e 07c1 c73d da8d 0cbe
00000300: 7dd4 02be 8d1b 0fbe 3eb3 15bd e2fc bebd
00000310: 4223 74be 336f e6bd 8872 463d 5476 193d
00000320: ab94 4fbe 9e9d 3e3d 6642 6b3d f4bc 0dbe
00000330: 8d1f d53d e1ea 43be 433b 9abd 6fe7 0e3e
00000340: 9f2b 47bd 88af 1fbe a890 8cbd c76f c5bd
00000350: 57b8 4dbd cab5 d1bd ff8d 17be 88cb 31be
00000360: b6a2 a1bc 3146 05be d344 afbe 3747 d53b
00000370: dc86 08be b2ae 8abe d741 313c 61db e03d
00000380: 4bb5 3dbe 5613 403d 5717 043e 9494 38be
00000390: 75eb b03d 07da c23b 0a12 6fbe 4a2e 7dbd
000003a0: 90a3 083d 765c 2cbe e821 debb b792 1dbc
000003b0: 0f6b 2fbe 02ec ce3d bdc0 6ebd 2766 1dbe
000003c0: e758 03be 3fb8 49bd 509e 56be 6dc4 95bd
000003d0: c4c8 e3bd 2c09 693d 008b 213d 956f b2bd
000003e0: 9cc6 993d cac9 a7bd 98bf d6bd 122b 163d
000003f0: 6fb4 81bd 815c bf3d 2971 07bd 7cb3 c43d

sequential_3/conv2d_13/Conv2D i1 [64, 3, 3, 32]
17 -2 -1 1 58 13 -15 35
-32 -26 -15 49 37 -43 -21 4
-24 5 -39 40 51 24 -40 -34
-3 -12 -19 27 5 96 33 34
10 -31 4 39 17 -51 24 67
-9 -21 -27 -1 29 -93 -19 27
6 -79 -30 25 28 -18 -15 -62
21 -23 -26 -2 53 122 35 -20
-4 5 -13 15 31 -24 -7 -9
-33 5 -11 28 44 -37 -1 38
-30 -16 7 75 -3 14 -8 -25
19 0 34 38 50 85 25 -10
-16 -11 42 31 44 -16 -6 1
-84 -11 23 -14 -35 2 -7 21
-22 -40 13 -11 0 -45 -15 -22
36 -35 -39 5 59 26 -47 18
-16 -22 7 41 30 -46 13 52
-31 -12 8 6 -6 -87 33 42
-1 -116 13 -5 23 -50 -13 -49
-9 -8 -18 -15 13 127 -4 26
-24 -15 5 34 1 -21 26 -15
-3 -32 1 32 32 -6 -25 73
-47 -40 49 2 37 3 -3 -4
36 3 12 24 3 78 -6 -37
-14 -7 26 -26 -29 -4 27 -24
-87 -39 -2 -21 -1 0 -37 -2
-14 -44 -36 10 27 -43 -11 -27
10 -6 19 -9 34 62 7 20
-6 -25 7 27 -23 -50 -17 41
-66 -19 -14 29 18 -70 22 40
3 -100 -16 18 -8 -54 -59 -51
-10 -21 -18 0 20 76 21 -19
00000000: 11fe ff01 3a0d f123 e0e6 f131 25d5 eb04
00000010: e805 d928 3318 d8de fdf4 ed1b 0560 2122
00000020: 0ae1 0427 11cd 1843 f7eb e5ff 1da3 ed1b
00000030: 06b1 e219 1cee f1c2 15e9 e6fe 357a 23ec
00000040: fc05 f30f 1fe8 f9f7 df05 f51c 2cdb ff26
00000050: e2f0 074b fd0e f8e7 1300 2226 3255 19f6
00000060: f0f5 2a1f 2cf0 fa01 acf5 17f2 dd02 f915
00000070: ead8 0df5 00d3 f1ea 24dd d905 3b1a d112
00000080: f0ea 0729 1ed2 0d34 e1f4 0806 faa9 212a
00000090: ff8c 0dfb 17ce f3cf f7f8 eef1 0d7f fc1a
000000a0: e8f1 0522 01eb 1af1 fde0 0120 20fa e749
000000b0: d1d8 3102 2503 fdfc 2403 0c18 034e fadb
000000c0: f2f9 1ae6 e3fc 1be8 a9d9 feeb ff00 dbfe
000000d0: f2d4 dc0a 1bd5 f5e5 0afa 13f7 223e 0714
000000e0: fae7 071b e9ce ef29 beed f21d 12ba 1628
000000f0: 039c f012 f8ca c5cd f6eb ee00 144c 15ed

sequential_3/conv2d_14/Conv2D i1 [128, 3, 3, 64]
-49 -26 -44 87 98 27 -82 60
-32 -52 50 8 55 -103 -35 -87
70 -87 -46 -13 -15 78 6 -55
31 -37 -50 61 -87 -37 58 81
-85 81 -54 -107 -105 -49 -3 -101
89 -75 -108 -60 -79 12 8 19
-70 -81 15 -3 -33 60 -14 51
33 50 -38 -50 84 -114 16 43
62 -53 -71 -93 51 -35 -59 -42
99 -72 -27 95 62 6 84 79
-35 -19 30 9 -47 16 -72 -91
3 -95 81 72 -41 -91 -20 -18
-114 97 -74 -43 -8 -63 -79 98
-69 87 -77 -61 91 -28 -78 -21
-64 38 -96 -39 6 -15 17 -105
-45 29 93 -110 81 -108 103 35
91 19 90 24 2 -44 -122 18
-42 81 -58 -66 49 56 -13 -68
22 -126 -70 -67 56 3 -10 102
11 12 26 -19 46 35 -52 32
-82 81 71 -115 -105 58 -74 50
57 -29 23 -52 -57 0 43 -97
-59 -11 87 -121 -108 91 49 81
84 -47 -103 -44 92 76 34 31
81 -61 75 18 28 98 -118 35
32 -94 26 -45 -43 6 -18 98
86 -88 -77 -85 -75 -67 -76 21
-67 -78 -26 -8 -78 -77 85 82
-110 -7 100 46 -114 80 -49 -52
69 -103 32 84 -2 -10 -18 17
-59 100 -126 -101 -38 -110 15 -116
-64 95 0 100 18 3 11 -84
00000000: cfe6 d457 621b ae3c e0cc 3208 3799 dda9
00000010: 46a9 d2f3 f14e 06c9 1fdb ce3d a9db 3a51
00000020: ab51 ca95 97cf fd9b 59b5 94c4 b10c 0813
00000030: baaf 0ffd df3c f233 2132 dace 548e 102b
00000040: 3ecb b9a3 33dd c5d6 63b8 e55f 3e06 544f
00000050: dded 1e09 d110 b8a5 03a1 5148 d7a5 ecee
00000060: 8e61 b6d5 f8c1 b162 bb57 b3c3 5be4 b2eb
00000070: c026 a0d9 06f1 1197 d31d 5d92 5194 6723
00000080: 5b13 5a18 02d4 8612 d651 c6be 3138 f3bc
00000090: 1682 babd 3803 f666 0b0c 1aed 2e23 cc20
000000a0: ae51 478d 973a b632 39e3 17cc c700 2b9f
000000b0: c5f5 5787 945b 3151 54d1 99d4 5c4c 221f
000000c0: 51c3 4b12 1c62 8a23 20a2 1ad3 d506 ee62
000000d0: 56a8 b3ab b5bd b415 bdb2 e6f8 b2b3 5552
000000e0: 92f9 642e 8e50 cfcc 4599 2054 fef6 ee11
000000f0: c564 829b da92 0f8c c05f 0064 1203 0bac

sequential_3/conv2d_15/Conv2D i1 [256, 3, 3, 128]
-43 -80 -57 -52 17 -20 -10 -74
-70 -39 24 -55 -69 -49 -60 6
28 24 -105 2 32 -53 45 10
-17 -80 -75 -46 -5 0 -35 -18
65 -61 -16 -88 1 -74 -56 -37
-66 -42 -6 2 -55 -99 -69 -59
-64 -67 -98 -34 24 -73 -54 -33
-56 -4 -58 15 -95 16 24 -107
-32 16 -18 -29 -77 -62 -25 -73
-57 -22 -36 -116 47 -16 -29 -21
-12 22 -103 20 61 -3 -67 -2
43 -10 15 50 12 -31 -29 -54
35 -22 -4 -60 21 -46 46 -3
-42 -66 -82 -16 -43 49 -5 -9
-29 -27 -3 -48 -54 -43 -90 11
19 -45 2 -106 52 -23 10 -55
4 -116 36 -48 -40 -20 57 -99
23 -38 27 -87 -87 25 -51 -55
20 -104 -87 -23 -78 -55 19 11
-66 -46 -83 -41 10 -1 -3 -5
-9 -44 36 -51 31 -63 -105 -50
11 22 4 -68 -50 -18 -33 -66
-70 -8 -16 -107 44 -1 -19 6
-75 -81 48 -47 -43 12 -18 -34
-55 -39 -64 -19 -21 -10 -85 -68
57 25 -66 -9 -10 -32 -108 -85
-63 -2 -45 52 -56 21 -23 -40
16 53 -31 -15 49 -44 -97 -46
6 -76 42 -60 -20 -41 30 -74
-73 -54 -51 -78 -29 18 -2 -57
-36 -20 -69 30 -29 -75 -22 27
51 20 -79 -6 11 -65 -35 -20
00000000: d5b0 c7cc 11ec f6b6 bad9 18c9 bbcf c406
00000010: 1c18 9702 20cb 2d0a efb0 b5d2 fb00 ddee
00000020: 41c3 f0a8 01b6 c8db bed6 fa02 c99d bbc5
00000030: c0bd 9ede 18b7 cadf c8fc c60f a110 1895
00000040: e010 eee3 b3c2 e7b7 c7ea dc8c 2ff0 e3eb
00000050: f416 9914 3dfd bdfe 2bf6 0f32 0ce1 e3ca
00000060: 23ea fcc4 15d2 2efd d6be aef0 d531 fbf7
00000070: e3e5 fdd0 cad5 a60b 13d3 0296 34e9 0ac9
00000080: 048c 24d0 d8ec 399d 17da 1ba9 a919 cdc9
00000090: 1498 a9e9 b2c9 130b bed2 add7 0aff fdfb
000000a0: f7d4 24cd 1fc1 97ce 0b16 04bc ceee dfbe
000000b0: baf8 f095 2cff ed06 b5af 30d1 d50c eede
000000c0: c9d9 c0ed ebf6 abbc 3919 bef7 f6e0 94ab
000000d0: c1fe d334 c815 e9d8 1035 e1f1 31d4 9fd2
000000e0: 06b4 2ac4 ecd7 1eb6 b7ca cdb2 e312 fec7
000000f0: dcec bb1e e3b5 ea1b 3314 b1fa 0bbf ddec
