tflite_models/sign_quant.tflite (tflite, 630272 bytes, 14 tensors)

dense_9/bias f4 [64]
-0.016951619 -0.0052269963 -0.04920518 -0.0060048006 -0.006003724 -0.006004763 -0.0059276763 -0.0040583042
-0.005553676 -0.0051266956 -0.0060010427 -0.0074064713 0.00015588131 -0.0060023647 0.0005587208 -0.013015104
-0.0060040606 -0.005649322 -0.006706509 -0.001241445 -0.0101248305 0.012620171 -0.010026306 0.0016767262
-0.010777956 -0.0060033933 -0.006005209 0.020148208 -0.007021252 -0.0028208303 0.020557666 0.003610717
-0.0060042026 -0.015076257 0.0038750707 -0.0017174375 -0.0057143136 -0.0060044425 -0.006004563 0.0016842041
0.008036899 -0.0060046413 -0.005159098 -0.019788023 -0.006003614 -0.002467236 -0.004081971 -0.0057131588
-0.006501935 -0.006172014 -0.0060029514 -0.005250284 -0.005553461 -0.005661112 -0.0061232024 -0.0051527843
0.0050582453 -0.009032869 -0.0060040327 -0.004228674 0.032251514 -0.0062929965 -0.0022016708 -0.0053999466
00000000: 1fde 8abc 3947 abbb 5f8b 49bd ebc3 c4bb
00000010: e3ba c4bb 9ac3 c4bb f43c c2bb 86fb 84bb
00000020: 9cfb b5bb d7fd a7bb 65a4 c4bb fcb1 f2bb
00000030: 1274 2339 7caf c4bb 1e77 123a 4e3d 55bc
00000040: b6bd c4bb f31d b9bb 46c2 dbbb fbb7 a2ba
00000050: 9ee2 25bc d5c4 4e3c 6045 24bc 98c5 db3a
00000060: 0696 30bc 1db8 c4bb 58c7 c4bb db0d a53c
00000070: 8812 e6bb aedd 38bb 8d68 a83c c7a1 6c3b
00000080: e7be c4bb 6802 77bc e6f4 7d3b a41b e1ba
00000090: 233f bbbb eac0 c4bb edc1 c4bb 83c0 dc3a
000000a0: 33ad 033c 95c2 c4bb a70d a9bb 7e1a a2bc
000000b0: f7b9 c4bb 5ab1 21bb 0ec2 85bb 7335 bbbb
000000c0: 2f0e d5bb 9b3e cabb 68b4 c4bb 930a acbb
000000d0: cff9 b5bb d980 b9bb 25a5 c8bb b0d8 a8bb
000000e0: a3bf a53b 99fe 13bc 7abd c4bb b090 8abb
000000f0: 2a1a 043d 7b35 cebb e849 10bb 09f2 b0bb

dense_11/bias f4 [26]
-0.0139847025 0.035696823 0.009086656 -0.03160476 -0.057655845 -0.06760338 0.06994546 0.03694272
-0.0111320065 -0.07063523 -0.0018675816 -0.039534368 0.034874067 -0.077465326 0.038977202 -0.046841025
0.05779544 0.009533912 0.030368937 -0.009465717 0.00906288 0.0008119708 0.024623305 0.04233904
-0.032182697 0.050055455
00000000: 1820 65bc d536 123d 33e0 143c fe73 01bd
00000010: 8928 6cbd a473 8abd 913f 8f3d 4051 173d
00000020: 0563 36bc 34a9 90bd a4c9 f4ba caee 21bd
00000030: 1cd8 0e3d 24a6 9ebd 8fa6 1f3d 60dc 3fbd
00000040: e9ba 6c3d 2034 1c3c 47c8 f83c 1816 1bbc
00000050: 797c 143c 70da 543a d0b6 c93c b46b 2d3d
00000060: 01d2 03bd f306 4d3d

dense_10/bias f4 [128]
0.031374868 9.155793e-05 0.0687782 0.05730989 -0.008661865 -0.064616665 0.0031676665 -0.0047487435
-0.003802158 -0.06046736 -0.018347872 0.06628669 0.07718057 -0.0150100645 -0.019971495 -0.08090287
-0.013330935 -0.03235538 0.0072379718 -0.018621951 0.026564771 0.022168865 0.008242211 0.036555566
-0.010960561 -0.015265142 0.004465791 0.009771603 -0.024375359 -0.05270781 0.09149461 -0.05429388
0.010814226 -0.012058213 0.015167033 -0.0049208296 0.033768147 0.040082175 0.032262426 -0.06699265
-0.047272105 -0.047498506 -0.06789043 0.10024241 0.02340843 0.030932425 -0.0023300059 -0.032743044
0.06977484 -0.015217399 0.00748131 -0.021049079 0.036464795 0.033098344 -0.008199737 -0.045904383
-0.019889385 -0.007729315 0.04803229 0.03581577 -3.7691527e-05 0.05148056 -0.0063966685 -0.0032480527
-0.07414638 0.019463375 -0.02656219 0.03178912 -0.04015891 0.045541737 0.044945385 -0.02848542
-0.027196907 -0.019141564 0.03608717 -0.03999911 -0.0024752426 0.024711683 -0.064153716 -0.016334955
-0.033398166 -0.014627766 -0.020010572 0.023117214 -0.008140474 0.032770574 -0.005456103 0.025511941
0.013022067 -0.02870084 0.00959292 0.07540669 -0.024227962 -0.046292577 -0.01343885 0.0027370364
0.024055965 0.006404496 0.02035814 -0.01654384 0.024739165 0.016472304 0.056742292 0.011074159
-0.020194521 0.035841413 -0.013091121 -0.0059636924 0.038964972 0.058362026 -0.000854447 -0.012324954
-0.003934785 0.0065003275 0.02834456 -0.011459434 -0.045371655 0.055447765 0.004025619 0.044274285
0.024974005 0.04342471 -0.029564569 0.006342898 -0.03248836 0.01633835 0.009146241 -0.021766467
00000000: ef82 003d ca02 c038 96db 8c3d c6bd 6a3d
00000010: 7fea 0dbc be55 84bd a098 4f3b 599b 9bbb
00000020: a02d 79bb 9fac 77bd 474e 96bc 51c1 873d
00000030: d910 9e3d c6ec 75bc 439b a3bc 67b0 a5bd
00000040: fe69 5abc 1387 04bd 822c ed3b 108d 98bc
00000050: 5d9e d93c 7b9b b53c 570a 073c 4abb 153d
00000060: ed93 33bc a51a 7abc c555 923b 1319 203c
00000070: d5ae c7bc 25e4 57bd 8761 bb3d 4263 5ebd
00000080: 272e 313c d08f 45bc 267f 783c e93e a1bb
00000090: 7850 0a3d 352d 243d 9b25 043d 7133 89bd
000000a0: 65a0 41bd cb8d 42bd 230a 8bbd e54b cd3d
000000b0: 09c3 bf3c ff65 fd3c 03b3 18bb 921d 06bd
000000c0: 1ce6 8e3d 6652 79bc c725 f53b 1e6f acbc
000000d0: 1c5c 153d 2192 073d 3158 06bc 3c06 3cbd
000000e0: 10ef a2bc 3246 fdbb 82bd 443d 8fb3 123d
000000f0: f816 1eb8 48dd 523d 259b d1bb 48dd 54bb
00000100: 0fda 97bd a871 9f3c f398 d9bc 4f35 023d
00000110: ab7d 24bd f989 3a3d a718 383d 415a e9bc
00000120: 0ccc debc c5ce 9cbc 24d0 133d 1bd6 23bd
00000130: ae37 22bb 2870 ca3c 0663 83bd e2d0 85bc
00000140: 84cc 08bd 4ca9 6fbc 36ed a3bc 5060 bd3c
00000150: 9f5f 05bc 703a 063d 1cc9 b2bb 6bfe d03c
00000160: 825a 553c 061e ebbc 9f2b 1d3c d36e 9a3d
00000170: b879 c6bc 499d 3dbd 9f2e 5cbc da5f 333b
00000180: 0411 c53c cedc d13b 1dc6 a63c f286 87bc
00000190: caa9 ca3c edf0 863c 9b6a 683d 6470 353c
000001a0: fb6e a5bc 72ce 123d 247c 56bc 146b c3bb
000001b0: bc99 1f3d 050d 6f3d f8fc 5fba 9bee 49bc
000001c0: 5eef 80bb b300 d53b da32 e83c 5ac0 3bbc
000001d0: a1d7 39bd 321d 633d 57e9 833b f458 353d
000001e0: 4996 cc3c 1cde 313d 6531 f2bc 16d8 cf3b
000001f0: 8412 05bd 01d8 853c 1dda 153c 974f b2bc

conv3d_19/kernel f4 [1, 1, 2, 128, 256]
0.063432194 0.095412694 -0.06920656 -0.07277759 0.05596538 0.064392835 -0.048081797 0.08552668
0.10110019 0.032894973 -0.14933734 0.0726399 -0.18907093 -0.035884567 -0.120840095 0.03244129
0.04498566 -0.030520013 0.024444964 -0.057359308 -0.0043740594 0.012236982 0.039958835 0.0056191315
-0.093771026 -0.06442245 -0.087401755 -0.10615032 -0.051615205 -0.014895161 0.01624081 0.042677846
-0.17077407 -0.02576234 -0.007833945 -0.08629488 0.14271897 0.046029173 0.09221586 0.04682176
0.098046064 -0.03870841 0.08019236 -0.047784228 -0.085026346 -0.088151164 -0.029503772 -0.0009441868
-0.05160151 0.004960799 -0.028234327 -0.062230844 0.07688503 -0.0065641343 -0.04460027 0.050078306
-0.06404544 -0.07991852 -0.2248048 -0.058516424 -0.026263135 0.00604053 -0.031164888 0.026844285
-0.09497921 0.06422346 -0.07343365 -0.01469026 -0.05740718 0.055655234 0.092208244 -0.0350941
0.10337679 0.07868379 -0.03940105 0.03248468 0.06002977 -0.035847746 -0.023994748 0.018585047
-0.032870546 0.03152873 0.058958225 -0.0044779507 -0.0011314171 0.014066563 0.10889676 0.023993287
-0.04861819 0.011561911 -0.0564486 -0.029670056 0.014552487 0.07290115 -0.0053932625 0.0036136087
-0.06666972 -0.18842234 0.047480877 -0.024875922 -0.055304874 0.07175543 0.052296195 -0.06959891
-0.01574669 0.12444248 0.07887523 0.0075918054 -0.008134074 -0.08439429 0.09752573 0.08893043
-0.036481064 -0.045395516 -0.19821839 -0.0661956 0.105609424 0.018714106 0.05111528 -0.0029478609
-0.06317213 -0.03627589 -0.0207962 0.074363306 -0.0029861652 0.05276513 0.022847788 -0.057535283
0.04152653 -0.030389223 -0.05842417 0.10911196 0.00241653 0.008625801 0.059509113 0.031660013
0.020781387 -0.052292597 -0.15469807 0.057592187 -0.121543065 0.013263045 0.03519463 0.07212099
-0.07378392 0.012882299 -0.049492337 0.00827305 -0.08657646 -0.07659108 0.0783969 -0.16268438
-0.04320147 0.0030848486 0.0268635 -0.040968787 -0.059348926 -0.095851704 0.0541746 -0.08282768
0.004518565 -0.034815248 -0.11297773 -0.023583695 -0.017128872 0.016666621 0.08005308 -0.03270781
-0.049992085 -0.08595588 0.03507464 0.057027284 -0.04008182 -0.023844771 0.0320768 0.06628603
0.028135635 0.026242333 0.03860531 0.021472076 0.07616955 -0.005932977 0.028973619 -0.06570558
-0.09076237 0.05139114 0.017597385 -0.080600254 -0.055250872 -0.11399543 -0.061877728 -0.07493673
-0.0452128 -0.042526763 -0.03311766 -0.013031526 0.024953922 -0.115115404 -0.0937464 -0.0006590703
-0.022439579 0.060041323 -0.045650147 0.05865052 0.086110555 -0.034551557 0.105405614 0.061676662
0.018872935 -0.012747039 0.019360883 0.026049772 -0.028788378 0.115020014 -0.0828854 0.10566886
-0.018254036 -0.054848768 0.054417174 -0.015567245 -0.016851485 -0.016307622 -0.035385177 -0.14887248
-0.03186127 -0.23003028 0.02462065 0.11661083 0.04860349 0.011816606 -0.060617622 0.010781278
-0.050064337 -0.06435553 -0.043012787 -0.17475279 -0.16886961 -0.074486084 0.065240376 -0.06927707
0.04860898 -0.030667843 -0.030746367 -0.14441223 -0.02675247 -0.11291918 -0.114878386 0.12845556
-0.086390115 0.0691438 0.005855859 -0.024983574 -0.069752164 -0.018401114 0.0043989597 -0.02415625
00000000: bde8 813d bb67 c33d 2bbc 8dbd 6b0c 95bd
00000010: f43b 653d 64e0 833d 6bf1 44bd 9d28 af3d
00000020: 9e0d cf3d e1bc 063d e3eb 18be 3ac4 943d
00000030: cf9b 41be b2fb 12bd 037b f7bd 28e1 043d
00000040: e242 383d 1b05 fabc ce40 c83c 98f1 6abd
00000050: 4554 8fbb 9f7d 483c e0ab 233d b120 b83b
00000060: 060b c0bd ebef 83bd b1ff b2bd 5765 d9bd
00000070: 776a 53bd d50a 74bc 720b 853c f7ce 2e3d
00000080: 66df 2ebe 8b0b d3bc f259 00bc 5fbb b0bd
00000090: ec24 123e 1689 3c3d abdb bc3d 2cc8 3f3d
000000a0: 60cc c83d b68c 1ebd e43b a43d 65b9 43bd
000000b0: 4b22 aebd 9988 b4bd e5b1 f1bc 4e83 77ba
000000c0: 1b5c 53bd 338e a23b ad4b e7bc c5e5 7ebd
000000d0: e675 9d3d f317 d7bb c6ae 36bd e91e 4d3d
000000e0: 412a 83bd 52ac a3bd 3b33 66be ebae 6fbd
000000f0: c925 d7bc a3ef c53b 824d ffbc 8ce8 db3c
00000100: 7684 c2bd 9787 833d 6264 96bd 6baf 70bc
00000110: cb23 6bbd bef6 633d add7 bc3d d5be 0fbd
00000120: 36b7 d33d f824 a13d ff62 21bd a80e 053d
00000130: c7e1 753d 16d5 12bd a290 c4bc ab3f 983c
00000140: 44a3 06bd 4524 013d 2e7e 713d c6bb 92bb
00000150: 0f4c 94ba 7177 663c 4405 df3d 928d c43c
00000160: de23 47bd 2b6e 3d3c a636 67bd 9e0e f3bc
00000170: 8e6d 6e3c 334d 953d f7b9 b0bb 4bd2 6c3b
00000180: 228a 88bd c9f1 40be 4f7b 423d 97c8 cbbc
00000190: 5d87 62bd 83f4 923d 8934 563d e089 8ebd
000001a0: 34ff 80bc b3db fe3d 5689 a13d aec4 f83b
000001b0: c744 05bc ead6 acbd 92bb c73d 2821 b63d
000001c0: 2b6d 15bd a6f0 39bd c3f9 4abe 8f91 87bd
000001d0: c149 d83d 534e 993c 415e 513d e630 41bb
000001e0: 6460 81bd 0796 14bd cb5c aabc ca4b 983d
000001f0: 8ab3 43bb 4020 583d 492b bb3c 1eaa 6bbd
00000200: b917 2a3d d2f2 f8bc 2f4e 6fbd 1776 df3d
00000210: a55e 1e3b 3b53 0d3c d4bf 733d eead 013d
00000220: ba3d aa3c c330 56bd 2c69 1ebe c9e5 6b3d
00000230: 92eb f8bd 3e4d 593c 3f28 103d 2bb4 933d
00000240: 061c 97bd 4710 533c 7ab8 4abd b08b 073c
00000250: 004f b1bd c9db 9cbd 8e8e a03d bc96 26be
00000260: 06f4 30bd 2c2b 4a3b d810 dc3c e3ce 27bd
00000270: dc17 73bd e64d c4bd 2fe6 5d3d 8fa1 a9bd
00000280: 7810 943b 6f9a 0ebd de60 e7bd 9832 c1bc
00000290: d951 8cbc 7088 883c dff2 a33d a0f8 05bd
000002a0: 80c4 4cbd a309 b0bd 6daa 0f3d 7195 693d
000002b0: d62c 24bd 1c56 c3bc f662 033d f8c0 873d
000002c0: b47c e63c 29fa d63c 9a20 1e3d 35e6 af3c
000002d0: c8fe 9b3d 6b69 c2bb 155a ed3c a690 86bd
000002e0: 9fe1 b9bd 847f 523d 6428 903c bf11 a5bd
000002f0: bd4e 62bd 7076 e9bd 8073 7dbd 6e78 99bd
00000300: 0f31 39bd 8b30 2ebd 62a6 07bd 2e82 55bc
00000310: 2b6c cc3c a0c1 ebbd 1dfe bfbd 76c5 2cba
00000320: 35d3 b7bc e4ed 753d a6fb 3abd 873b 703d
00000330: bb5a b03d ef85 0dbd e6de d73d aba0 7c3d
00000340: 6a9b 9a3c f5d8 50bc b79a 9e3c 5566 d53c
00000350: 9bd5 ebbc 9d8f eb3d d2bf a9bd ea68 d83d
00000360: 7d89 95bc 1aa9 60bd 8be4 5e3d c20d 7fbc
00000370: 200c 8abc 9097 85bc 0cf0 10bd 0772 18be
00000380: f780 02bd 0f8d 6bbe 3fb1 c93c a9d1 ee3d
00000390: 7414 473d 709a 413c 2f4a 78bd f5a3 303c
000003a0: 4310 4dbd d5cc 83bd 2d2e 30bd 65f2 32be
000003b0: 28ec 2cbe 298c 98bd bf9c 853d 23e1 8dbd
000003c0: 361a 473d 213b fbbc cedf fbbc cde0 13be
000003d0: ff27 dbbc 2c42 e7bd 5c45 ebbd db89 033e
000003e0: 4ded b0bd 449b 8d3d 81e2 bf3b 5aaa ccbc
000003f0: 39da 8ebd efbd 96bc 2625 903b 54e3 c5bc

conv3d_19/bias f4 [256]
-0.0071802363 0.0071559767 -0.006526185 0.008211118 -0.007915327 0.007321148 0.0 0.009225303
0.03461016 0.0032492867 0.009017025 -0.014188651 -0.016708167 -0.0037479466 0.010439699 0.011220376
-0.022026002 -0.039378583 -0.019209128 -0.013242126 0.011979123 -0.017141549 -0.009266719 -0.0009865683
0.012521922 0.007853738 -0.025613207 -0.027677083 -0.0090084765 0.0126877455 0.002111946 0.038901493
0.0018157302 -0.0021205507 -0.015216048 -0.018858796 -0.004199569 -0.009254354 0.011635212 -0.007687333
-0.009685659 -0.0047314684 0.028156616 0.049790874 -0.00597905 -0.017845243 -0.004081736 -0.013474107
0.008569734 -0.00586451 -0.008301819 -0.0051578204 0.0051570404 0.029756594 -0.027571384 0.025062416
-0.0065653413 -0.017091967 0.003276548 0.0025120776 -0.028901223 0.010997279 -0.010289581 -0.01301248
-0.028408114 0.029398888 -0.0073251333 -0.012414822 -0.00695407 -0.0074294186 0.031289075 0.04834575
0.019683452 -0.031684976 0.004641322 -0.021832244 -0.04039311 -0.007784064 -0.012196414 0.010917472
-0.009130126 -0.00023299817 -0.0002782995 0.0020332546 -0.0072955936 -0.021614486 0.012636101 -0.018098492
-0.022939803 -0.0052162274 -0.021270849 -0.022266097 0.0047600167 0.010825161 -0.015224663 0.00681779
-0.013142913 0.00841942 -0.01828433 -0.013311581 0.044701893 -0.019967545 -0.0062376237 0.033425897
0.011142786 -0.0135492245 -0.012035871 -0.006161746 -0.010508029 -0.011185224 -0.0218588 0.038989063
0.016206136 0.017216401 -0.0022312263 -0.010524982 -0.026233383 -0.008021375 -0.010512181 -0.020783765
-0.014785522 -0.0014174811 -0.01790983 -0.004811245 -0.0144678475 -0.014728973 0.033559524 -0.009954053
-0.013236492 0.006483352 -0.0049316636 -0.0028332493 -0.01309822 -0.015812773 -0.016690211 -0.00934906
-0.017150667 -0.00720464 -0.005815383 -0.018481445 0.002482871 0.025020976 -0.010054331 -0.034041677
-0.014831287 -0.0126855215 0.034798667 -0.006692105 -0.016131245 -0.0056360494 -0.009371582 -0.0009969195
-0.019668529 0.020000145 0.037708387 0.017390974 -0.023820605 -0.028967712 -0.016576195 0.0022845813
-0.009951987 -0.013160741 0.0112323575 -0.014985003 0.028222539 -0.005233413 -0.012395951 -0.02592103
-0.009868277 0.0030739352 -0.020156568 0.016142739 -0.025101565 -0.003601433 0.036737856 -0.011896798
-0.0355221 -0.005556371 -0.016297221 -0.015092087 -0.0056548137 -0.015240346 -0.0057661254 -0.011853737
-0.012112487 -0.019435018 -0.008384086 -0.011653584 -0.027088791 0.00089869 -0.012610387 -0.0006623012
-0.005323569 -0.012604977 -0.017496902 -0.019338464 -0.0016307529 -0.000698241 -0.008430162 -0.0197422
-0.008999196 -0.016309878 0.00022619078 -0.016254688 0.0130122155 -0.0047498075 0.0057077548 0.039774254
0.015090114 -0.0075807865 -0.008313685 0.033624392 -0.011295755 -0.0006985348 -0.027406346 -0.0018355765
-0.018265786 -0.001278135 -0.008012128 -0.020660818 -0.019013142 -0.012888108 0.0045634853 -0.014903096
-0.00038548122 0.012408957 -0.0054742876 0.010554908 -0.02131114 0.004401422 -0.018352244 0.00836454
-0.00388837 -0.007240975 -0.021897344 -0.009376247 0.010343383 0.014972796 0.035550382 0.0061424896
-0.01136914 -0.0067962455 0.02006819 -0.032648668 -0.018686157 0.007643261 0.0053410847 0.036317665
-0.000121829755 -0.015027112 -0.013030695 0.001878273 -0.012547588 0.014121965 -0.00106639 0.022868253
00000000: 3048 ebbb af7c ea3b 9cd9 d5bb ed87 063c
00000010: 4aaf 01bc 3ee6 ef3b 0000 0000 ba25 173c
00000020: 62c3 0d3d fcf1 543b 25bc 133c 8477 68bc
00000030: 91df 88bc 1ca0 75bb 450b 2b3c abd5 373c
00000040: e06f b4bc 704b 21bd 765c 9dbc 81f5 58bc
00000050: 1544 443c 6f6c 8cbc 70d3 17bc bd4f 81ba
00000060: bf28 4d3c f7ac 003c cad2 d1bc 0dbb e2bc
00000070: 4a98 13bc 43e0 4f3c 9368 0a3b 2c57 1f3d
00000080: ccfd ed3a f0f8 0abb bb4c 79bc c37d 9abc
00000090: 8a9c 89bb 939f 17bc 9ea1 3e3c 06e6 fbbb
000000a0: 99b0 1ebc 6f0a 9bbb b4a8 e63c 84f1 4b3d
000000b0: e8eb c3bb 3030 92bc 15c0 85bb 80c2 5cbc
000000c0: 1268 0c3c 132b c0bb 5a04 08bc ef02 a9bb
000000d0: 64fc a83b 1ac4 f33c 62dd e1bc b24f cd3c
000000e0: 1322 d7bb 7404 8cbc 5bbb 563b aba1 243b
000000f0: 42c2 ecbc ee2d 343c a195 28bc 4c32 55bc
00000100: 22b8 e8bc f0d5 f03c ac07 f0bb 8a67 4bbc
00000110: f8de e3bb 7b72 f3bb f928 003d 3106 463d
00000120: 313f a13c 1bc8 01bd 3b16 983b 89d9 b2bc
00000130: 3f73 25bd 7611 ffbb 78d3 47bc 32df 323c
00000140: 8696 15bc f850 74b9 bae8 91b9 5a40 053b
00000150: e00f efbb dd10 b1bc a607 4f3c 4a43 94bc
00000160: 41ec bbbc e3ec aabb 3440 aebc 6467 b6bc
00000170: eaf9 9b3b 045c 313c dd70 79bc c567 df3b
00000180: 5f55 57bc 9bf1 093c 05c9 95bc d118 5abc
00000190: 5519 373d fa92 a3bc fb64 ccbb 98e9 083d
000001a0: 3b90 363c 91fd 5dbc 1a32 45bc 79e8 c9bb
000001b0: de29 2cbc 3b42 37bc 3a11 b3bc ffb2 1f3d
000001c0: bbc2 843c 6909 8d3c c439 12bb f970 2cbc
000001d0: 64e7 d6bc 166c 03bc 483b 2cbc b742 aabc
000001e0: f93e 72bc c6ca b9ba a3b7 92bc a6a7 9dbb
000001f0: 8d0a 6dbc ca51 71bc b675 093d 5316 23bc
00000200: dfdd 58bc 4c72 d43b cb99 a1bb 09ae 39bb
00000210: eb99 56bc ca89 81bc e9b9 88bc cd2c 19bc
00000220: 8e7f 8cbc e714 ecbb f88e bebb 6666 97bc
00000230: aab7 223b caf8 cc3c ecba 24bc 496f 0bbd
00000240: edfe 72bc efd6 4fbc 0c89 0e3d 7249 dbbb
00000250: ac25 84bc 9cae b8bb 448b 19bc 11ab 82ba
00000260: e51f a1bc 58d7 a33c 1c74 1a3d 8477 8e3c
00000270: 6e23 c3bc b24d edbc cdca 87bc eab8 153b
00000280: a90d 23bc 26a0 57bc ec07 383c a883 75bc
00000290: f432 e73c 0d7d abbb 6318 4bbc 5758 d4bc
000002a0: 8eae 21bc 1374 493b 631f a5bc c73d 843c
000002b0: cca1 cdbc 0506 6cbb 6f7a 163d caea 42bc
000002c0: 9f7f 11bd 3812 b6bb c081 85bc cd44 77bc
000002d0: 044c b9bb a5b2 79bc c4f1 bcbb 2d36 42bc
000002e0: 7473 46bc 3036 9fbc 685d 09bc adee 3ebc
000002f0: 50e9 ddbc 1196 6b3a cc9b 4ebc 489e 2dba
00000300: 5571 aebb 1b85 4ebc aa55 8fbc b36b 9ebc
00000310: fdbe d5ba 290a 37ba aa1e 0abc 65ba a1bc
00000320: 5d71 13bc 4b9c 85bc a02d 6d39 8d28 85bc
00000330: 3031 553c 46a4 9bbb 1e08 bb3b 54ea 223d
00000340: 873c 773c 3f68 f8bb 1f36 08bc bbb9 093d
00000350: d511 39bc e01d 37ba 4683 e0bc ba97 f0ba
00000360: 21a2 95bc 1887 a7ba 4d45 03bc e040 a9bc
00000370: 73c1 9bbc a528 53bc 4a89 953b 1d2c 74bc
00000380: 6a1a cab9 f04e 4b3c a761 b3bb 7eee 2c3c
00000390: b394 aebc ce39 903b 7257 96bc 6c0b 093c
000003a0: 06d4 7ebb b345 edbb 0f62 b3bc d59e 19bc
000003b0: 4b77 293c 7550 753c 479d 113d f046 c93b
000003c0: a145 3abc 0ab3 debb 0b66 a43c 9cba 05bd
000003d0: b613 99bc 5274 fa3b 4404 af3b d5c1 143d
000003e0: da7e ffb8 4734 76bc b27e 55bc 6230 f63a
000003f0: 6694 4dbc d05f 673c 1cc6 8bba 3456 bb3c

conv3d_18/kernel f4 [1, 1, 2, 64, 128]
0.13585591 -0.02152289 -0.15463863 0.020271096 -0.14700292 0.09247192 0.010903525 0.029496806
0.097920336 0.13076654 0.13891909 0.10483061 0.056542646 0.06354072 0.009563648 -0.011067004
-0.17856483 -0.11054093 -0.0016209991 0.12575212 -0.0844869 0.14267206 -0.14164115 -0.031074902
-0.12997645 -0.08148806 -0.090009 0.12778589 -0.11148711 -0.011697708 -0.049460936 0.05483979
0.07071272 0.041867394 -0.08697796 -0.16616334 0.08574277 0.06701192 0.10914161 0.07366789
-0.040857874 0.060782745 0.17345735 -0.017391393 0.11716839 -0.035442952 -0.12562373 -0.08960122
0.11097994 0.14061232 -0.12019462 -0.054092743 0.014033652 -0.017843988 0.055003658 0.17248638
-0.049054343 0.03714102 0.01803401 -0.12510903 -0.049093697 -0.12115118 0.11223598 0.12993224
-0.12097303 -0.008475935 -0.14349942 0.1463996 -0.13003793 0.029263798 0.16511883 0.17655963
-0.11165713 -0.018465882 0.092286974 -0.0210509 -0.01915028 0.06752245 -0.1113845 -0.05009389
0.09104842 -0.07859226 -0.09913483 -0.050268468 0.057076357 0.13953263 -0.11122208 -0.0862323
-0.17019248 0.08810858 0.01609722 -0.027311003 -0.073945045 0.07634328 0.1039413 0.097983494
0.07170307 0.01672316 -0.1013369 0.12162633 -0.08480327 -0.09421868 0.04562044 -0.08763453
0.00013194053 -0.10397141 0.07398543 0.09691977 0.058233447 -0.04585069 0.08318382 0.066086546
0.02306393 -0.10642847 -0.087794736 -0.07936293 0.045868076 0.024405217 -0.1418477 0.032530837
0.15139084 -0.064418435 0.06348668 0.10807172 0.04467137 0.15336074 -0.022168716 -0.04992678
0.152932 -0.01779011 -0.020978112 -0.17949603 -0.103396416 0.16276006 0.059758097 -0.1257469
-0.030819036 0.095630154 -0.014100891 0.07839814 0.0082486 -0.13037589 0.020867176 0.049486473
0.043842338 0.030209422 -0.0007304853 0.13998547 -0.0890518 0.18590854 0.11760492 -0.021980971
-0.05282639 0.022056758 0.011719143 0.054951414 -0.05297484 0.10733858 -0.037416127 -0.024635095
0.11476039 -0.023376487 0.052932568 -0.12252702 -0.008532263 -0.080567785 0.09865887 0.03939774
0.07272945 0.08722576 0.17590672 -0.060552716 -0.007459649 0.14391235 0.01624384 0.1831695
-0.023962107 0.10545335 -0.019053822 0.037635446 -0.030345978 0.090757996 -0.024485739 0.077998996
-0.13805819 -0.11576569 0.049304135 -0.0661739 0.093849525 -0.016562779 -0.029407486 0.117657155
-0.12917358 -0.009169255 -0.14419094 0.11513338 0.056181792 0.014032018 0.12965183 0.062235072
-0.10846651 0.16969548 0.009836096 0.14870873 -0.14816114 0.19653769 -0.021295663 -0.0102011645
0.013665528 0.059271414 0.0020281076 -0.07295741 0.017030647 0.026889998 -0.010935231 -0.03206108
0.03633503 0.14639448 0.10957382 -0.014590331 -0.11640024 0.09135146 0.03656487 -0.014205305
0.108882606 -0.059813123 0.04971683 -0.06045252 -0.08476328 -0.17682587 -0.059488475 0.045631878
-0.05544615 -0.08923403 0.14108853 0.09777305 -0.047655273 -0.09454916 -0.16585825 0.009008043
0.14589329 -0.08941051 -0.012415067 -0.07374439 0.06789068 0.028419 0.022713557 0.11683043
0.052092053 0.061238106 -0.015318919 -0.09703317 -0.049754616 0.18147981 -0.007404061 -0.03800947
00000000: d01d 0b3e c650 b0bc 9759 1ebe 920f a63c
00000010: ef87 16be eb61 bd3d b3a4 323c 49a3 f13c
00000020: 758a c83d aae7 053e ce40 0e3e 6eb1 d63d
00000030: 4399 673d a321 823d d9b0 1c3c 6152 35bc
00000040: b3d9 36be 4863 e2bd b477 d4ba 2ac5 003e
00000050: 7807 adbd a018 123e 610a 11be cb90 febc
00000060: 8c18 05be 36e3 a6bd a356 b8bd 4eda 023e
00000070: 5b53 e4bd bea7 3fbc 8d97 4abd b09f 603d
00000080: d5d1 903d 257d 2b3d 8021 b2bd b926 2abe
00000090: e899 af3d 8c3d 893d a385 df3d 31df 963d
000000a0: 965a 27bd 54f7 783d ce9e 313e 6578 8ebc
000000b0: fbf5 ef3d a12c 11bd 82a3 00be d880 b7bd
000000c0: 7349 e33d adfc 0f3e 9928 f6bd 5a90 5dbd
000000d0: 67ed 653c 8e2d 92bc 844b 613d 45a0 303e
000000e0: 35ed 48bd 2f21 183d 0fbc 933c 951c 00be
000000f0: 7916 49bd 1c1e f8bd fadb e53d f50c 053e
00000100: b5c0 f7bd a6de 0abc 83f1 12be c7e9 153e
00000110: aa28 05be a2ba ef3c e914 293e 0ccc 343e
00000120: 7eac e4bd c345 97bc f400 bd3d f072 acbc
00000130: 0ce1 9cbc 3649 8a3d 8f1d e4bd 402f 4dbd
00000140: 9877 ba3d fbf4 a0bd 3407 cbbd 4fe6 4dbd
00000150: e6c8 693d a4e1 0e3e 67c8 e3bd 8f9a b0bd
00000160: f046 2ebe 4572 b43d 51de 833c 53bb dfbc
00000170: 8070 97bd de59 9c3d 2ddf d43d 92ab c83d
00000180: 0fd9 923d 02ff 883c b889 cfbd 3a17 f93d
00000190: 56ad adbd b9f5 c0bd 80dc 3a3d bc79 b3bd
000001a0: 8459 0a39 f6ee d4bd ac85 973d df7d c63d
000001b0: 3286 6e3d efcd 3bbd 475c aa3d 6258 873d
000001c0: 91f0 bc3c 2bf7 d9bd bacd b3bd 0889 a2bd
000001d0: 2ae0 3b3d 73ed c73c 8640 11be 0e3f 053d
000001e0: 3306 1b3e d0ed 83bd 4e05 823d b554 dd3d
000001f0: 54f9 363d 990a 1d3e 2b9b b5bc 0680 4cbd
00000200: 359a 1c3e 91bc 91bc 4ada abbc cfcd 37be
00000210: 80c1 d3bd 93aa 263e e8c4 743d ccc3 00be
00000220: 3478 fcbc bed9 c33d 6c07 67bc 348f a03d
00000230: 2325 073c 4281 05be a4f1 aa3c 54b2 4a3d
00000240: 0694 333d c079 f73c 0a7e 3fba 5a58 0f3e
00000250: ca60 b6bd cf5e 3e3e d9da f03d 7011 b4bc
00000260: 7c60 58bd 60b0 b43c a601 403c bc14 613d
00000270: 25fc 58bd 54d4 db3d a741 19bd 8acf c9bc
00000280: 7f07 eb3d 0c80 bfbc d2cf 583d 72ef fabd
00000290: e8ca 0bbc b900 a5bd a90d ca3d 865f 213d
000002a0: 2ef3 943d 6ba3 b23d e420 343e 2006 78bd
000002b0: 1270 f4bb c25d 133e cd11 853c c990 3b3e
000002c0: 2e4c c4bc edf7 d73d c316 9cbc a027 1a3d
000002d0: 2198 f8bc 54df b93d 5196 c8bc f0bd 9f3d
000002e0: 205f 0dbe 9016 edbd 22f3 493d 2f86 87bd
000002f0: 2e34 c03d aaae 87bc f8e7 f0bc 3cf6 f03d
00000300: 1446 04be a53a 16bc caa6 13be 0dcb eb3d
00000310: e11e 663d 8de6 653c 73c3 043e 34ea 7e3d
00000320: b123 debd a7c4 2d3e 9427 213c 1a47 183e
00000330: 8eb7 17be 2d41 493e 3e74 aebc c922 27bc
00000340: 61e5 5f3c 95c6 723d 00ea 043b b26a 95bd
00000350: db83 8b3c 6a48 dc3c af29 33bc 7b52 03bd
00000360: 0ad4 143d 6fe8 153e 3d68 e03d 490c 6fbc
00000370: 4063 eebd 7916 bb3d 0cc5 153d 5ebd 68bc
00000380: d8fd de3d 9bfe 74bd e0a3 4b3d 109d 77bd
00000390: 5f98 adbd d711 35be 30aa 73bd 7ee8 3a3d
000003a0: 811b 63bd 55c0 b6bd 8379 103e 3d3d c83d
000003b0: 2d32 43bd fda2 c1bd bfd6 29be 7996 133c
000003c0: 0d65 153e dc1c b7bd 9168 4bbc 4c07 97bd
000003d0: 450a 8b3d f6ce e83c c811 ba3c cb44 ef3d
000003e0: 7a5e 553d cfd4 7a3d 34fc 7abc 54b9 c6bd
000003f0: 7fcb 4bbd d8d5 393e c49d f2bb d1af 1bbd

conv3d_18/bias f4 [128]
0.01280145 -0.007831067 0.014346517 -0.0026133899 -0.030944185 0.0013158133 0.022761073 -0.0074476595
0.012393044 0.0113314185 -0.016495675 -3.810918e-05 -0.0067574894 0.012025458 0.030785162 0.0019166886
-0.017934488 0.0 0.0063970177 0.00846036 -0.00552722 0.003325693 -0.036158346 -0.012888844
-0.012840607 0.0507544 -0.003252752 -0.017122354 -0.0011842835 0.01430993 0.0041694203 -0.0071735918
0.004514399 -0.017540611 0.043864273 -0.023116864 -0.0056714164 0.011257369 0.048186615 0.018795699
-0.0014502404 -0.005464145 -0.0058575827 -0.009409709 0.04958408 0.028998913 -0.03483911 0.023129769
0.004424797 0.04484901 0.0040736785 -0.017852848 -0.012147663 0.017697915 -0.010136519 0.0034429692
0.024496159 -0.023815254 0.020449275 -0.0042544072 0.009110467 -0.0043537356 0.029025234 -0.0002217944
0.024572315 0.009801728 0.0077187945 0.0247717 0.0059056063 -0.00458211 0.028378053 0.019351097
-0.009813132 -0.019524336 0.014282627 0.050589792 -0.0231716 0.032153305 0.0074241143 0.00040216686
0.00557786 0.0076142903 0.0 0.011259345 0.031475436 0.034328096 -0.011428306 0.031374294
-0.01792707 0.021417104 -0.02669033 -0.019332236 0.0 0.046050087 -0.007482328 0.018082475
0.009361514 -0.009883131 0.0 0.039698537 -0.0035638274 0.0035177148 -0.00661485 -0.02792638
-0.022143273 -0.002198697 -0.01301392 -0.008754291 0.0026186684 -0.0076427036 -0.017328955 -0.009983366
0.004865882 -0.024183184 0.004481286 0.0 0.05015562 0.059080627 0.0064142877 -0.006373557
0.010366646 0.008187717 -0.013517417 0.015846834 -0.01181827 -0.0025095702 -0.0034181336 0.023186326
00000000: 2cbd 513c e04d 00bc a70d 6b3c 6845 2bbb
00000010: a97e fdbc 5e77 ac3a 6e75 ba3c 7f0b f4bb
00000020: 320c 4b3c 6aa7 393c f021 87bc 6cd7 1fb8
00000030: ee6d ddbb 6d06 453c 2a31 fc3c 6639 fb3a
00000040: 59eb 92bc 0000 0000 139e d13b 529d 0a3c
00000050: af1d b5bb dff3 593b c61a 14bd bb2b 53bc
00000060: 6961 52bc d9e3 4f3d 1f2c 55bb 2e44 8cbc
00000070: f639 9bba 3274 6a3c a29f 883b 7310 ebbb
00000080: 86ed 933b 54b1 8fbc 06ab 333d 945f bdbc
00000090: 4ad7 b9bb d470 383c 545f 453d 70f9 993c
000000a0: fe15 beba 920c b3bb f7f0 bfbb 2e2b 1abc
000000b0: ad18 4b3d 218f ed3c 74b3 0ebd a47a bd3c
000000c0: e3fd 903b 98b3 373d 7e7c 853b 2340 92bc
000000d0: fe06 47bc 38fb 903c a413 26bc 70a3 613b
000000e0: 2bac c83c 3518 c3bc 3d85 a73c 8e68 8bbb
000000f0: 1144 153c c8a9 8ebb 54c6 ed3c 7b91 68b9
00000100: e14b c93c 6d97 203c f1ed fc3b 05ee ca3c
00000110: d183 c13b 8625 96bb 1779 e83c 3186 9e3c
00000120: 42c7 20bc 80f1 9fbc ae01 6a3c 3e37 4f3d
00000130: 5ed2 bdbc 2fb3 033d fc45 f33b ecd9 d239
00000140: 7bc6 b63b 4c81 f93b 0000 0000 1e79 383c
00000150: 63ec 003d 9e9b 0c3d ca3d 3bbc 5582 003d
00000160: cadb 92bc ec72 af3c aea5 dabc a35e 9ebc
00000170: 0000 0000 049f 3c3d 512e f5bb b321 943c
00000180: 0961 193c dbec 21bc 0000 0000 ef9a 223d
00000190: 1a8f 69bb 7689 663b 62c1 d8bb ddc5 e4bc
000001a0: cf65 b5bc 0418 10bb 5638 55bc 286e 0fbc
000001b0: f79d 2b3b a56f fabb 74f5 8dbc 4691 23bc
000001c0: fa71 9f3b d01b c6bc c0d7 923b 0000 0000
000001d0: fb6f 4d3d 87fe 713d f22e d23b 45d9 d0bb
000001e0: ddd8 293c c625 063c 2878 5dbc 38d1 813c
000001f0: 6ba1 41bc 9a77 24bb c402 60bb 40f1 bd3c

conv3d_17/kernel f4 [1, 1, 2, 32, 64]
-0.14351027 0.08189465 -0.12640119 -0.04958412 0.008876085 0.13586698 0.021684557 -0.12767208
-0.007890865 -0.1199082 -0.042774037 -0.04897122 0.054450363 0.10977565 0.01804766 -0.039396092
0.097997054 0.09890567 0.02548097 0.16872104 0.090136185 -0.13170347 0.045632303 0.008700371
-0.13903272 0.02176708 0.15771355 -0.042747736 0.13271548 0.0015068352 0.024574772 0.16503958
-0.11346446 -0.17450431 -0.031494066 0.14103995 0.124140516 0.014728546 -0.17346635 -0.0009187162
0.066231415 -0.07033302 -0.04266973 -0.012686923 -0.08246031 -0.16221125 -0.0633457 0.07060276
0.14962728 0.09351449 -0.14674829 -0.049047932 -0.12894124 0.008808613 -0.1570161 0.08230491
-0.14715378 -0.094477765 0.041678593 0.14697786 0.1042463 -0.13806911 0.1735823 0.0695903
0.17288092 0.084933095 -0.009419897 0.29408088 0.13167691 -0.17143513 -0.13905355 0.001451982
0.046884753 -0.27848774 -0.059872694 0.06325421 -0.0009198425 -0.07054434 -0.026022933 0.18087415
-0.025768103 0.1420975 0.12573968 -0.20123397 -0.025143031 -0.09758158 0.21695457 -0.15264642
-0.010914776 -0.10843137 0.06025568 -0.29074416 -0.046031192 -0.11026442 0.28774178 0.19573303
0.07538697 0.097441636 -0.11328662 0.015800752 0.008009419 -0.15613212 -0.19756182 -0.09084205
0.098749176 -0.13447239 -0.09644643 -0.266141 0.0031655245 -0.06193638 -0.11525778 0.15122479
-0.30210292 0.07871814 -0.060811024 -0.07640966 -0.01810291 -0.045620818 0.036350086 -0.012921408
-0.02874915 0.085369155 0.019157449 0.10095439 -0.018312357 -0.09470086 0.1792697 0.20303452
0.20529066 0.13912188 -0.046788476 0.13638262 0.22960708 0.09490996 -0.19764473 0.19755979
0.019953359 -0.13281049 -0.14875963 0.12630565 0.0062515074 0.092205085 0.19895422 0.07644496
0.026984625 -0.072987296 -0.15300176 -0.1643025 0.012974877 -0.02927678 0.16004165 -0.09978979
-0.124877304 -0.03497224 -0.006801997 -0.022044646 -0.018544707 0.13517012 0.13647538 -0.11536144
0.0870667 -0.015897512 -0.076860726 0.07252502 -0.0893718 0.049932055 -0.055808987 0.0019833585
-0.037067264 -0.110762276 -0.0036974463 -0.042053167 0.016774531 0.049919218 -0.10798616 -0.08022577
-0.1947552 -0.058115155 -0.07414683 0.1967132 -0.15251726 -0.21860498 0.12839977 -0.14641768
0.012575827 -0.14303254 0.06277928 -0.06249503 0.07266926 -0.06589486 -0.18098514 0.032748725
0.14530535 -0.1240227 -0.0024096475 -0.024861904 0.029696463 0.0052119256 0.17239061 0.10875975
0.020523153 0.0064732064 -0.142058 -0.10312716 0.060713366 0.13483699 -0.032435104 -0.098726004
-0.14108774 0.14002071 0.0047824713 0.14756678 0.04544653 -0.001761306 0.105030864 -0.12662639
-0.14242344 0.12594822 0.014935709 0.05558043 -0.15552498 0.20063123 0.14911376 0.058721736
0.06585929 -0.16868319 -0.027405381 -0.16475163 -0.12977049 0.072791904 -0.11592128 -0.13664539
-0.13475966 0.12666358 0.17690237 0.100381084 -0.09118547 -0.069949344 0.003358241 -0.051428504
0.13031833 0.12736589 -0.15352446 0.095702596 0.18177085 -0.15859424 0.15604627 -0.095500536
0.20351434 0.020825937 0.1582495 -0.15321776 -0.0801943 -0.17738008 -0.10982603 -0.09196461
00000000: 5bf4 12be 62b8 a73d 506f 01be b818 4bbd
00000010: 006d 113c b720 0b3e d0a3 b13c 78bc 02be
00000020: b048 01bc 6e92 f5bd d433 2fbd 0c96 48bd
00000030: 5807 5f3d 0ed2 e03d b0d8 933c cc5d 21bd
00000040: aeb2 c83d 0e8f ca3d 78bd d03c 35c5 2c3e
00000050: 5299 b83d 46dd 06be f0e8 3a3d 008c 0e3c
00000060: 985e 0ebe e050 b23c a97f 213e 4018 2fbd
00000070: 91e6 073e 0081 c53a 0851 c93c 2300 293e
00000080: 0e60 e8bd 42b1 32be ecff 00bd c76c 103e
00000090: 623d fe3d 0050 713c 2aa1 31be 00d6 70ba
000000a0: 56a4 873d c20a 90bd 74c6 2ebd d0dc 4fbc
000000b0: f3e0 a8bd b51a 26be 64bb 81bd 2e98 903d
000000c0: e537 193e 8684 bf3d 2f45 16be 7ce6 48bd
000000d0: 2c09 04be 0052 103c d4c8 20be 7a8f a83d
000000e0: 7baf 16be 8f7d c1bd 2cb7 2a3d 5d81 163e
000000f0: 167f d53d fd61 0dbe 8fbf 313e 5c85 8e3d
00000100: b207 313e 67f1 ad3d e955 1abc c591 963e
00000110: 50d6 063e b18c 2fbe 0e64 0ebe 6e50 be3a
00000120: 3a0a 403d f295 8ebe 123d 75bd 6c8b 813d
00000130: 9621 71ba 8d79 90bd 0c2e d5bc 1337 393e
00000140: a117 d3bc 0282 113e e7c1 003e 4710 4ebe
00000150: c2f8 cdbc dad8 c7bd 5729 5e3e 584f 1cbe
00000160: e3d3 32bc 4411 debd a9ce 763d 6bdc 94be
00000170: 348b 3cbd 50d2 e1bd e452 933e 3d6e 483e
00000180: 7c64 9a3d 7b8f c73d d102 e8bd 9470 813c
00000190: f039 033c 19e1 1fbe a54d 4abe 660b babd
000001a0: 023d ca3d 21b3 09be b585 c5bd a243 88be
000001b0: b074 4f3b 00b1 7dbd 450c ecbd acda 1a3e
000001c0: 3cad 9abe fa36 a13d fb14 79bd ab7c 9cbd
000001d0: 8e4c 94bc e5dc 3abd d4e3 143d 50b4 53bc
000001e0: 5683 ebbc 06d6 ae3d 15f0 9c3c 2dc1 ce3d
000001f0: cc03 96bc 86f2 c1bd 7a92 373e 48e8 4f3e
00000200: b737 523e f775 0e3e 46a5 3fbd e3a7 0b3e
00000210: 1e1e 6b3e 2760 c23d 6163 4abe 1d4d 4a3e
00000220: 3a75 a33c 79ff 07be 7254 18be 4556 013e
00000230: 72d9 cc3b 05d6 bc3d a8ba 4b3e 2d8f 9c3d
00000240: dc0e dd3c 5d7a 95bd 7eac 1cbe ea3e 28be
00000250: 9494 543c dcd5 efbc f5e1 233e 975e ccbd
00000260: acbf ffbd 0d3f 0fbd 49e3 debb f996 b4bc
00000270: 12eb 97bc 096a 0a3e 34c0 0b3e 9e42 ecbd
00000280: 0750 b23d 803b 82bc 2869 9dbd ff87 943d
00000290: 9008 b7bd 8e85 4c3d f797 64bd 3cfb 013b
000002a0: d8d3 17bd 55d7 e2bd db50 72bb f13f 2cbd
000002b0: be6a 893c 1878 4c3d d927 ddbd 694d a4bd
000002c0: e86d 47be 280a 6ebd 4bda 97bd 2f6f 493e
000002d0: 7c2d 1cbe fcd9 5fbe 3b7b 033e 84ee 15be
000002e0: d70a 4e3c 1f77 12be 6c92 803d cafa 7fbd
000002f0: 9fd3 943d e2f3 86bd 2b54 39be 8723 063d
00000300: edca 143e 9dff fdbd 2deb 1dbb 31ab cbbc
00000310: ff45 f33c cdc8 aa3b 2a87 303e 6fbd de3d
00000320: 2c20 a83c 311d d43b a777 11be 5534 d3bd
00000330: 94ae 783d b512 0a3e acda 04bd dc30 cabd
00000340: 4e79 10be 9761 0f3e 47b6 9c3b bf1b 173e
00000350: 2426 3a3d 9fdb e6ba 6c1a d73d 59aa 01be
00000360: 73d7 11be 92f8 003e e7b4 743c 4ea8 633d
00000370: f141 1fbe 4672 4d3e 47b1 183e 3486 703d
00000380: 3ce1 863d 49bb 2cbe 4081 e0bc a7b4 28be
00000390: 8ee2 04be ec13 953d 2368 edbd c5ec 0bbe
000003a0: 70fe 09be 19b4 013e e525 353e 9994 cd3d
000003b0: 73bf babd 9a41 8fbd ef15 5c3b b2a6 52bd
000003c0: 2b72 053e 346c 023e 8435 1dbe b9ff c33d
000003d0: 2322 3a3e 8766 22be 98ca 1f3e c995 c3bd
000003e0: 1066 503e 289b aa3c 280c 223e 1ee5 1cbe
000003f0: e93c a4bd 20a3 35be 78ec e0bd f157 bcbd

conv3d_17/bias f4 [64]
0.01718759 0.026029278 0.021575995 0.032779593 0.003376991 -0.04251124 -0.0076489886 -0.052454777
0.0009897 0.024067959 -0.009611271 0.055439617 0.0050645997 0.004396351 0.0020946711 0.014814332
-0.00017222579 0.0077615078 0.0076178513 0.008317957 0.028913055 -0.028643627 -0.032172427 0.035254125
0.01866641 0.007909616 -0.029989861 0.033999976 -0.005518332 -0.016220732 -0.024442414 0.00388569
0.056192677 0.027727406 -0.0056744046 0.026228376 0.0 -0.0053591714 0.050928537 -0.013435938
0.0 -0.00016891869 -0.055130582 0.035605572 -0.022181643 0.03133167 -0.039598815 0.0074632606
0.040297966 -0.025834756 0.00819372 0.013067329 -0.046720326 0.02214994 0.005909914 0.063049704
-0.053285133 0.0 -0.008161435 0.059430722 -0.018465148 0.051010024 5.8659898e-05 0.019874271
00000000: fdcc 8c3c 5a3b d53c 24c0 b03c e543 063d
00000010: 8250 5d3b 4420 2ebd 5ea4 fabb d2da 56bd
00000020: d2b8 813a 2b2a c53c 9878 1dbc a714 633d
00000030: f1f4 a53b 440f 903b c046 093b d0b7 723c
00000040: 8297 34b9 3f54 fe3b 2b9f f93b 0a48 083c
00000050: 12db ec3c 0aa6 eabc 3cc7 03bd a166 103d
00000060: 4dea 983c 5697 013c 4cad f5bc 8f43 0b3d
00000070: 20d3 b4bb 57e1 84bc 753b c8bc 0fa7 7e3b
00000080: 4b2a 663d 9624 e33c 5bf0 b9bb e4dc d63c
00000090: 0000 0000 fd9b afbb 719a 503d 6922 5cbc
000000a0: 0000 0000 c41f 31b9 9bd0 61bd 26d7 113d
000000b0: 47b6 b5bc a355 003d 5e32 22bd 5e8e f43b
000000c0: 7b0f 253d 69a3 d3bc f43e 063c 5a18 563c
000000d0: d05d 3fbd ca73 b53c f4a7 c13b 3420 813d
000000e0: 8341 5abd 0000 0000 8ab7 05bc a16d 733d
000000f0: 3944 97bc e3ef 503d 9609 7638 5ecf a23c

conv3d_16/kernel f4 [1, 1, 2, 3, 32]
-0.14245811 0.03574105 0.049130496 0.10210696 0.19923736 0.27342397 -0.26572427 -0.066963844
0.3008701 -0.030392408 0.19428469 0.18657863 -0.12063232 0.16761824 0.31015798 0.050384186
-0.28576607 -0.05342112 -0.27340603 -0.057824884 0.023120569 -0.016990926 -0.11825362 -0.23753238
-0.29391557 -0.20366682 -0.14345774 0.00939117 -0.23619194 -0.20544255 0.18570903 0.025342833
0.07263765 -0.21538578 -0.11456535 0.16040376 -0.2639554 -0.28190303 -0.09118992 -0.076927006
-0.06227959 0.12640262 0.13171647 0.29323262 0.11912337 0.042095114 -0.25004408 -0.06281531
0.28297657 0.24004653 -0.06601597 -0.32400542 -0.029960431 -0.22508153 0.12827347 -0.08371512
0.007298489 -0.2378012 -0.1107505 -0.08961831 -0.27482972 0.09812237 -0.28115228 0.18435414
-0.19624132 0.03933457 0.11564141 0.0065837214 0.25710914 0.2187782 0.12805408 -0.09152262
-0.16703016 0.41545102 0.08091895 0.023990346 0.20610376 0.062192883 -0.10072367 0.2443408
-0.3289012 0.031169299 -0.17647253 -0.24131048 0.20701414 -0.19442615 0.23235872 -0.049562644
-0.2986909 -0.060598698 -0.030676425 -0.12847826 -0.1759252 0.16013224 -0.087546855 0.101768345
-0.26196194 -0.061820913 -0.1288128 0.23161344 0.080262624 -0.07885584 -0.18980244 0.0989361
0.24446976 -0.0043410663 0.25353587 -0.21954909 0.06699154 -0.18394381 -0.2212722 -0.056149766
-0.2021531 0.00094192126 -0.062957466 -0.0010079105 0.15945852 -0.045323517 0.31512395 0.18010618
0.24585404 0.09772828 0.03561002 0.2112184 0.34128916 -0.2540888 -0.083096445 -0.11642274
-0.28711244 0.2648609 0.28265145 0.18610433 -0.013935676 -0.024467073 -0.18289429 0.31233314
0.17129494 0.07682265 -0.025691664 0.19335136 -0.021676555 0.032972347 0.019962627 0.26618284
0.27153012 0.043532077 0.010669619 -0.13843557 0.22827937 0.16398865 -0.29925802 0.17539908
0.22103678 0.28884897 -0.23217472 -0.13687943 0.25832942 0.11905685 0.13794091 -0.03283099
-0.29099342 0.13071042 -0.24081704 -0.29695427 0.10786554 -0.06286365 -0.056229204 0.19248602
-0.26518062 0.34619442 -0.17816645 -0.19405077 -0.11624259 -0.20319419 0.079153135 0.24526723
-0.22990313 0.06461745 -0.08360827 0.12700199 0.086004116 -0.18902968 0.006485318 0.24605057
0.14797412 -0.011750032 -0.15446953 -0.2722194 0.11766898 0.2571097 0.28537175 -0.07110234
00000000: 8ae0 11be 3565 123d 0f3d 493d 741d d13d
00000010: e104 4c3e 3afe 8b3e 030d 88be 5724 89bd
00000020: a50b 9a3e 80f9 f8bc 91f2 463e 780e 3f3e
00000030: 140e f7bd 1ea4 2b3e 07cd 9e3e a65f 4e3d
00000040: ee4f 92be 1bd0 5abd e0fb 8bbe c9d9 6cbd
00000050: 5967 bd3c 8e30 8bbc f42e f2bd b03b 73be
00000060: 1a7c 96be 098e 50be 96e6 12be 6cdd 193c
00000070: 4ddc 71be 885f 52be 822a 3e3e c69b cf3c
00000080: 0cc3 943d 178e 5cbe 3da1 eabd e240 243e
00000090: 2a25 87be 9855 90be c8c1 babd e88b 9dbd
000000a0: e218 7fbd b06f 013e afe0 063e 9622 963e
000000b0: f4f6 f33d ed6b 2c3d c705 80be 50a5 80bd
000000c0: 4ee2 903e c2ce 753e 6233 87bd 0ae4 a5be
000000d0: 946f f5bc c67b 66be 1f5a 033e d572 abbd
000000e0: 2a28 ef3b 2882 73be 28d1 e2bd ce89 b7bd
000000f0: 7bb6 8cbe 62f4 c83d 31f3 8fbe 55c7 3c3e
00000100: 7cf3 48be 491d 213d 67d5 ec3d 42bc d73b
00000110: cfa3 833e 6407 603e 9c20 033e 3670 bbbd
00000120: f409 2bbe ffb5 d43e d6b8 a53d 6787 c43c
00000130: dd0c 533e f7bd 7e3d 3648 cebd 7a34 7a3e
00000140: bd65 a8be c256 ff3c 37b5 34be 181a 77be
00000150: 84fb 533e a617 47be 72ef 6d3e 3302 4bbd
00000160: 03ee 98be 5736 78bd 204d fbbc ce8f 03be
00000170: bc25 34be b5f9 233e c44b b3bd ec6b d03d
00000180: e01f 86be ed37 7dbd 81e7 03be 132c 6d3e
00000190: bb60 a43d 2c7f a1bd 925b 42be 039f ca3d
000001a0: 4856 7a3e 813f 8ebb 74cf 813e 7ad1 60be
000001b0: dc32 893d c45b 3cbe 2e95 62be 4cfd 65bd
000001c0: 3901 4fbe 44eb 763a d8ef 80bd dd1b 84ba
000001d0: 1849 233e 27a5 39bd ed57 a13e c16d 383e
000001e0: 29c1 7b3e c425 c83d d0db 113d a349 583e
000001f0: 74bd ae3e ed17 82be 782e aabd 0c6f eebd
00000200: 6700 93be d99b 873e b1b7 903e 2292 3e3e
00000210: 7652 64bc 2c6f c8bc a448 3bbe 21ea 9f3e
00000220: f167 2f3e 3255 9d3d 5377 d2bc e6fd 453e
00000230: 0893 b1bc 030e 073d aa88 a33c 1e49 883e
00000240: ff05 8b3e b14e 323d a0cf 2e3c 0ec2 0dbe
00000250: 11c2 693e a4ec 273e 5938 99be d19b 333e
00000260: 7757 623e 03e4 933e 36bf 6dbe 1f2a 0cbe
00000270: c143 843e 14d4 f33d 6240 0d3e ca79 06bd
00000280: 17fd 94be f4d8 053e be98 76be 640a 98be
00000290: 9ce8 dc3d a8be 80bd 9850 66bd 0e1b 453e
000002a0: c1c5 87be 6540 b13e 4471 36be 3fb5 46be
000002b0: 9810 eebd 2312 50be 0a1b a23d 5527 7b3e
000002c0: ba6b 6bbe 2756 843d d03a abbd cf0c 023e
000002d0: ed22 b03d ff90 41be ca82 d43b aef4 7b3e
000002e0: 8786 173e 3583 40bc 432d 1ebe 5760 8bbe
000002f0: 6ffc f03d e2a3 833e 3f1c 923e 1b9e 91bd

conv3d_16/bias f4 [32]
0.0 0.037149727 0.009577204 -0.042057488 0.02139414 0.041224223 0.0 -0.0154130915
-0.023132475 0.048817944 -0.015806269 -0.024336098 0.009622629 -0.00901403 0.07150545 0.011865617
0.021653026 -0.011533953 0.0 0.024118487 -0.027744113 0.052508134 0.04538481 0.05158537
-0.0017026732 0.05765783 0.0 0.024266843 0.041942522 -0.013855001 0.037413314 0.012703007
00000000: 0000 0000 502a 183d b4e9 1c3c 7944 2cbd
00000010: c342 af3c bbda 283d 0000 0000 3187 7cbc
00000020: 5180 bdbc 53f5 473d 267c 81bc 7f5c c7bc
00000030: 3ba8 1d3c 95af 13bc 7371 923d 0168 423c
00000040: b061 b13c e8f8 3cbc 0000 0000 2294 c53c
00000050: 9f47 e3bc c512 573d 6ce5 393d 2e4b 533d
00000060: 3b2c dfba 9e2a 6c3d 0000 0000 42cb c63c
00000070: eccb 2b3d 1600 63bc b43e 193d 4620 503c

sequential_6/dense_9/MatMul i1 [64, 4096] scale=0.0016758374 zero_point=0
-0.0033516749 0.03351675 -0.03351675 -0.08714355 -0.005027512 0.011730862 -0.025137562 -0.05195096
0.043571774 -0.07206101 -0.050275125 0.0670335 0.07373685 -0.030165074 0.041895937 -0.04524761
0.117308624 0.031840913 0.020110048 0.018434212 0.011730862 0.0033516749 0.0033516749 0.025137562
0.008379187 0.0 0.041895937 0.07541268 -0.028489236 0.06033015 -0.06033015 0.008379187
0.0 -0.011730862 0.011730862 0.018434212 0.03351675 -0.018434212 -0.026813399 0.0033516749
-0.0016758374 0.031840913 0.028489236 -0.0134066995 0.021785887 -0.016758375 0.036868423 0.05697847
-0.0067033498 0.0033516749 0.031840913 0.008379187 -0.018434212 0.040220097 0.016758375 -0.07876436
0.008379187 0.041895937 -0.0016758374 -0.0016758374 0.055302635 0.0033516749 -0.010055024 0.023461724
0.053626798 -0.0016758374 0.040220097 -0.0033516749 0.083791874 0.0016758374 0.0067033498 0.023461724
0.028489236 0.08546771 0.10557776 0.015082537 0.055302635 -0.011730862 -0.0016758374 -0.030165074
-0.040220097 0.055302635 -0.048599284 -0.07708852 0.035192586 0.07206101 0.0033516749 -0.028489236
0.020110048 -0.036868423 0.020110048 -0.0016758374 0.035192586 -0.062005986 0.09719857 -0.03351675
0.028489236 0.030165074 0.023461724 -0.011730862 -0.053626798 0.07541268 0.021785887 -0.030165074
-0.07541268 0.07876436 0.023461724 0.021785887 0.0067033498 0.030165074 0.04524761 -0.011730862
-0.015082537 0.005027512 0.016758375 -0.005027512 0.06033015 0.0033516749 0.040220097 -0.030165074
-0.021785887 -0.023461724 0.020110048 -0.021785887 -0.011730862 0.021785887 0.03351675 0.016758375
0.043571774 -0.026813399 0.015082537 0.040220097 -0.030165074 0.09552273 -0.026813399 0.010055024
-0.005027512 -0.026813399 0.040220097 -0.031840913 -0.09552273 -0.07541268 0.026813399 0.1206603
0.055302635 -0.016758375 0.035192586 0.020110048 0.025137562 -0.0016758374 0.011730862 -0.005027512
0.07373685 0.005027512 -0.0134066995 -0.036868423 0.08044019 -0.03351675 0.07876436 -0.04524761
0.083791874 -0.035192586 0.028489236 0.008379187 0.008379187 0.021785887 -0.023461724 0.016758375
-0.023461724 0.028489236 0.041895937 -0.07373685 0.03351675 0.041895937 0.010055024 0.025137562
0.122336134 -0.036868423 0.043571774 0.04524761 0.036868423 0.030165074 0.031840913 0.0033516749
0.0134066995 0.0134066995 0.030165074 0.0016758374 0.055302635 -0.0067033498 0.015082537 0.011730862
0.0033516749 -0.031840913 0.0033516749 0.063681826 -0.026813399 -0.083791874 0.031840913 -0.063681826
0.040220097 -0.011730862 -0.03854426 -0.016758375 0.08044019 -0.020110048 0.030165074 0.040220097
-0.050275125 -0.040220097 -0.0016758374 -0.018434212 0.08714355 -0.020110048 0.03351675 -0.008379187
0.04524761 -0.0067033498 0.048599284 0.021785887 0.07541268 0.015082537 -0.015082537 0.053626798
0.043571774 0.015082537 0.026813399 -0.023461724 0.03351675 -0.028489236 0.03854426 -0.043571774
0.015082537 -0.026813399 0.036868423 0.0016758374 0.023461724 -0.018434212 -0.018434212 -0.021785887
-0.0134066995 -0.08546771 0.021785887 0.036868423 -0.008379187 -0.036868423 -0.043571774 -0.018434212
0.011730862 0.040220097 0.040220097 0.07708852 -0.005027512 -0.018434212 -0.015082537 0.0016758374
00000000: fe14 eccc fd07 f1e1 1ad5 e228 2cee 19e5
00000010: 4613 0c0b 0702 020f 0500 192d ef24 dc05
00000020: 00f9 070b 14f5 f002 ff13 11f8 0df6 1622
00000030: fc02 1305 f518 0ad1 0519 ffff 2102 fa0e
00000040: 20ff 18fe 3201 040e 1133 3f09 21f9 ffee
00000050: e821 e3d2 152b 02ef 0cea 0cff 15db 3aec
00000060: 1112 0ef9 e02d 0dee d32f 0e0d 0412 1bf9
00000070: f703 0afd 2402 18ee f3f2 0cf3 f90d 140a
00000080: 1af0 0918 ee39 f006 fdf0 18ed c7d3 1048
00000090: 21f6 150c 0fff 07fd 2c03 f8ea 30ec 2fe5
000000a0: 32eb 1105 050d f20a f211 19d4 1419 060f
000000b0: 49ea 1a1b 1612 1302 0808 1201 21fc 0907
000000c0: 02ed 0226 f0ce 13da 18f9 e9f6 30f4 1218
000000d0: e2e8 fff5 34f4 14fb 1bfc 1d0d 2d09 f720
000000e0: 1a09 10f2 14ef 17e6 09f0 1601 0ef5 f5f3
000000f0: f8cd 0d16 fbea e6f5 0718 182e fdf5 f701

sequential_6/dense_10/MatMul i1 [128, 64] scale=0.0028929168 zero_point=0
-0.08100167 0.06364417 0.060751252 0.09257334 -0.06653709 -0.026036251 -0.15911043 -0.0028929168
-0.14175293 -0.057858337 0.0173575 -0.19671834 -0.0028929168 -0.08968042 0.0 0.107037924
-0.15043168 -0.15332459 -0.09835917 -0.026036251 -0.020250417 0.06364417 0.052072503 0.00867875
-0.095466256 -0.0173575 -0.011571667 -0.22564751 -0.13307418 -0.07232292 0.10125209 -0.08100167
-0.031822085 -0.11571667 0.13018125 0.18225376 -0.057858337 -0.07521584 -0.049179584 0.20250417
-0.0057858336 0.14464584 0.020250417 -0.020250417 0.07521584 0.0057858336 -0.08389459 -0.15043168
-0.15911043 -0.107037924 -0.13596709 0.043393753 -0.049179584 -0.13886 -0.12728834 -0.10125209
0.0173575 0.13307418 -0.08100167 -0.0028929168 -0.0173575 0.052072503 0.07810875 -0.15332459
0.107037924 -0.0057858336 0.08100167 -0.023143334 -0.0173575 0.15043168 -0.121502504 0.13886
0.13886 0.04628667 -0.121502504 0.07232292 -0.0028929168 -0.06653709 0.19093251 0.0057858336
-0.12439542 -0.14175293 0.16489625 0.040500835 -0.054965418 -0.06943 0.095466256 0.1562175
0.00867875 -0.13307418 -0.16489625 0.14753875 0.023143334 0.15332459 0.07232292 0.023143334
-0.07521584 0.15043168 -0.023143334 -0.22564751 -0.095466256 0.040500835 -0.026036251 -0.13886
0.08100167 0.104145005 -0.13307418 -0.19093251 -0.040500835 -0.17646793 -0.08389459 -0.06364417
-0.16489625 0.13307418 -0.109930836 0.043393753 -0.03760792 -0.06653709 0.0057858336 0.0173575
0.043393753 -0.043393753 0.06653709 0.09835917 -0.026036251 -0.1562175 0.06364417 0.15911043
-0.09257334 0.08389459 -0.06653709 -0.14175293 0.15043168 0.040500835 -0.17357501 -0.043393753
0.16489625 -0.11571667 0.08100167 0.07521584 -0.011571667 -0.16778918 -0.10125209 0.13886
-0.13596709 -0.15911043 0.0173575 0.07810875 0.107037924 0.08100167 -0.12439542 -0.09835917
0.16200334 -0.15911043 0.13596709 0.107037924 0.08678751 -0.07232292 0.19382542 0.054965418
0.034715 -0.14175293 0.20829001 -0.040500835 -0.09835917 -0.13886 0.011571667 -0.24879085
0.011571667 0.16778918 -0.028929168 0.06364417 0.0057858336 -0.095466256 -0.0057858336 -0.17357501
-0.118609585 0.06364417 0.13018125 0.17357501 -0.054965418 0.12439542 -0.11571667 0.07232292
-0.13018125 0.00867875 0.014464584 0.11571667 -0.023143334 0.17068209 -0.13886 0.031822085
-0.060751252 -0.12439542 -0.04628667 0.15043168 0.023143334 0.0028929168 -0.06364417 -0.17068209
-0.049179584 -0.15911043 -0.043393753 -0.112823755 -0.23721917 -0.15911043 -0.031822085 0.12439542
0.026036251 0.15043168 -0.011571667 -0.107037924 -0.13886 0.2950775 0.19961126 0.13018125
0.12439542 -0.052072503 0.0057858336 0.04628667 0.17646793 0.052072503 -0.24589793 0.07810875
-0.03760792 0.14175293 -0.06364417 -0.16200334 0.17068209 -0.0028929168 0.026036251 -0.060751252
-0.034715 -0.049179584 -0.06943 0.14464584 0.034715 0.052072503 0.13018125 0.0
0.00867875 -0.14753875 0.09257334 0.06364417 0.040500835 -0.1562175 -0.08100167 -0.16200334
0.031822085 -0.07232292 -0.09835917 -0.109930836 -0.13018125 -0.09835917 -0.023143334 0.0
00000000: e416 1520 e9f7 c9ff cfec 06bc ffe1 0025
00000010: cccb def7 f916 1203 dffa fcb2 d2e7 23e4
00000020: f5d8 2d3f ece6 ef46 fe32 07f9 1a02 e3cc
00000030: c9db d10f efd0 d4dd 062e e4ff fa12 1bcb
00000040: 25fe 1cf8 fa34 d630 3010 d619 ffe9 4202
00000050: d5cf 390e ede8 2136 03d2 c733 0835 1908
00000060: e634 f8b2 df0e f7d0 1c24 d2be f2c3 e3ea
00000070: c72e da0f f3e9 0206 0ff1 1722 f7ca 1637
00000080: e01d e9cf 340e c4f1 39d8 1c1a fcc6 dd30
00000090: d1c9 061b 251c d5de 38c9 2f25 1ee7 4313
000000a0: 0ccf 48f2 ded0 04aa 043a f616 02df fec4
000000b0: d716 2d3c ed2b d819 d303 0528 f83b d00b
000000c0: ebd5 f034 0801 eac5 efc9 f1d9 aec9 f52b
000000d0: 0934 fcdb d066 452d 2bee 0210 3d12 ab1b
000000e0: f331 eac8 3bff 09eb f4ef e832 0c12 2d00
000000f0: 03cd 2016 0eca e4c8 0be7 deda d3de f800
