tflite_models/sign_quant.tflite (tflite, 106752 bytes, 16 tensors)

dense_4/bias f4 [26]
000000 3a 67 18 3c 3f c5 83 bd 2f 25 8b 3e f2 72 2b be
       0.009301955 -0.06434106 0.27176806 -0.16743067
000010 7a d0 dc be ca dc a7 3e eb b9 50 3d 38 20 58 3e
       -0.43127805 0.32785636 0.050958555 0.2110604
000020 ad 07 94 3e 6b cc d3 be 86 28 5d bc 1e 65 76 3e
       0.28912106 -0.41366896 -0.013498431 0.2406201
000030 81 48 ab bd 92 d2 15 bd c8 57 6b be a5 95 6f bc
       -0.083634384 -0.03657777 -0.22982705 -0.01462308
000040 d4 f3 25 be 50 78 a9 bd 21 f7 dc 3d 21 ce c5 3e
       -0.16206294 -0.08274901 0.107893236 0.38633826
000050 70 2f d7 bd 9d d4 a8 bd 99 d3 76 be 3f a2 a9 3d
       -0.10507095 -0.08243678 -0.24104156 0.08282899
000060 04 e4 a7 be d0 d6 f4 be
       -0.3279115 -0.4782014

dense_3/bias f4 [128]
000000 5d b8 fb 3d 8c 05 a4 be 4c 35 fd 3d 7e 23 11 3e
       0.12291024 -0.32035482 0.12363681 0.14173695
000010 eb b5 3a 3e 40 71 95 bd 57 b9 d0 3d 51 f9 1a 3e
       0.18233459 -0.07296991 0.10191601 0.15134169
000020 9d 7d d1 3e 80 72 1a 3d b1 25 2b 3e e0 c3 0c be
       0.40916148 0.037706852 0.16713597 -0.13746595
000030 2d e8 d3 bd aa 3b 92 3d 3f f4 2b be ed ee f9 bd
       -0.103470184 0.07140286 -0.16792391 -0.122037746
000040 df e8 2a be 67 5d 80 3e 18 25 8b bd 21 80 83 be
       -0.16690396 0.2507126 -0.067941844 -0.25683692
000050 90 bf 7d 3c 9b f7 dc 3d 13 56 09 bd 6d d7 cb bd
       0.015487567 0.107894145 -0.033529352 -0.099531986
000060 fe ee 39 3e 67 ee 37 bd d1 4c 5f 3d 54 cf 8d 3c
       0.18157575 -0.044905093 0.054516617 0.017310776
000070 49 4a d9 3e e1 fd 39 3e 83 aa 7c 3e f0 18 b8 bd
       0.42439488 0.18163253 0.2467442 -0.089891315
000080 64 ef d0 3b 5f 4f 81 3d 1a 8c 8b 3e 59 70 3e 3e
       0.006376194 0.06313967 0.27255327 0.18597545
000090 bc d2 0f 3e 15 84 39 3e b7 ea 57 be 97 8d c2 3d
       0.14045233 0.18116792 -0.2108563 0.09499662
0000a0 8f c5 5d 3e 4c 01 fb 3c db 13 3f 3e be ed d0 3e
       0.21657394 0.030640267 0.18659918 0.40806383
0000b0 18 c2 4b bb 00 0d d2 bd 94 d1 dd 3c cd f5 90 bd
       -0.003109103 -0.10256386 0.027077474 -0.07078133
0000c0 d7 7d c0 3e 11 92 69 bd 65 30 42 be ec 5a b1 3e
       0.37596008 -0.057024065 -0.18963774 0.3463968
0000d0 3a 39 92 bd 30 22 8d 3e 27 ed 8b be 07 b9 20 3d
       -0.07139821 0.27565145 -0.2732937 0.039238956
0000e0 bc 78 be bd b9 65 b6 3b 0d 64 cc 3d f4 ca 15 3e
       -0.09300372 0.0055663255 0.09980021 0.14628202
0000f0 04 2e d9 3c e5 46 a9 3b d1 bc 0f bd 19 e5 79 3e
       0.0265112 0.005165922 -0.03509218 0.244038
000100 83 3c 17 3d d2 53 ae bd b9 74 46 3e d3 d8 a1 bd
       0.036922943 -0.08512081 0.19380464 -0.07902684
000110 69 5f 98 3d 55 3b 0b 3d 3c 68 8c 3e b8 59 f0 3d
       0.07440073 0.03399213 0.27423275 0.117358625
000120 08 95 af bd f8 44 15 3e 48 b2 9f 3d 17 4a ab 3e
       -0.08573347 0.1457709 0.07797676 0.33454964
000130 cf 30 d9 3d f3 5a 84 3e cb 1b 1b 3e 6c 0c 10 3d
       0.106050126 0.2585064 0.15147321 0.035168096
000140 85 ba a9 bc fc 51 b5 3d 46 c6 8f 3e c2 31 37 3e
       -0.020718822 0.08853528 0.28080958 0.17890075
000150 36 18 7a 3d 09 bb 11 3c 76 57 19 3e c2 7b f5 3d
       0.061058246 0.00889469 0.1497477 0.119864956
000160 0a 68 15 bd 9a e3 03 bd 04 10 e5 bd b4 1b 5c be
       -0.036476173 -0.03219948 -0.11184695 -0.21494943
000170 a4 8b 53 3d 8f 95 be 3e b6 43 19 3f aa 82 0c bd
       0.051646844 0.3722348 0.59868944 -0.0343043
000180 45 91 7e 3e 17 1a 04 bd 97 06 8c 3d ef e5 9e 3e
       0.24860103 -0.032251444 0.068371944 0.310348
000190 a3 8d 26 be ab 33 51 3b e7 0f b7 3d de 55 29 bd
       -0.16264968 0.0031921666 0.0893858 -0.041341655
0001a0 5f 07 43 3d 5f 12 83 3e 94 b2 7c 3e 42 29 2b 3e
       0.04761445 0.25599954 0.24677497 0.16714957
0001b0 40 40 66 3c 50 f0 86 3b f1 22 5b 3e a1 d5 d2 3d
       0.014053404 0.004118003 0.21400048 0.10294653
0001c0 81 ba 8d be 04 64 ac 3e be a4 ee bc 8d d5 79 3d
       -0.27681354 0.33670056 -0.02913129 0.060994674
0001d0 ec 66 47 be 3f 54 26 3e de 07 d9 bd 15 4e dc bd
       -0.19472855 0.16243075 -0.10597204 -0.107570805
0001e0 a9 e5 84 3e 63 d1 06 3f 19 af 12 3d 31 b7 84 3b
       0.25956467 0.5266325 0.035811517 0.0040501584
0001f0 60 a4 89 be 3c ef 9b 3e 3c e3 7a 3d 54 e8 a7 3c
       -0.2688322 0.3045596 0.061251864 0.020496525

dense_2/bias f4 [128]
000000 8e e4 ae 3d 48 60 e0 3e f7 06 2a 3e ee 89 4e 3d
       0.08539687 0.43823457 0.1660422 0.05042451
000010 70 07 03 bd 6c d2 81 be 43 0b 02 3e a6 7b 3b 3e
       -0.031989515 -0.25355852 0.12699609 0.18308887
000020 d3 ca c7 3e 8c 89 b8 3e be e5 cb 3e 5c e4 e1 bc
       0.3902193 0.3604244 0.39823717 -0.02757471
000030 50 55 4f 3d 03 3b 3a 3d 23 71 e0 bc da e5 22 3d
       0.05061847 0.045466434 -0.027397698 0.039769985
000040 57 32 2f 3e e6 ec e5 3d f1 4c a8 3e 4e a0 82 3e
       0.17109047 0.112268254 0.32871202 0.25512928
000050 60 f1 7b 3e 9a 23 26 be 2f 69 88 be b0 d0 ef bd
       0.24603796 -0.16224518 -0.2664275 -0.11709726
000060 c5 6b 10 be 08 20 47 bd d7 68 6b 3e 75 65 02 3c
       -0.14103611 -0.04861453 0.22989212 0.00795876
000070 a1 5e 9a bd 08 a8 62 3e 99 91 43 3e 61 4d d6 3e
       -0.0753758 0.22134411 0.1909851 0.4185591
000080 ad 3c 82 bd 0a 2f da 3d 25 f4 68 3d 74 84 65 bc
       -0.06359229 0.10653503 0.05687346 -0.01400863
000090 0e 05 05 3e 31 34 55 3c 92 b9 34 be 85 b3 37 3d
       0.1299021 0.013012932 -0.17648914 0.044848938
0000a0 6f 5c f1 bd da e2 49 3d 20 04 51 3e 83 19 87 be
       -0.117852084 0.049288608 0.2041173 -0.2638665
0000b0 36 6c 40 bd 6f dd 9b 3e be af 70 3e 7f d1 39 3e
       -0.046978198 0.30442378 0.2350454 0.18146323
0000c0 3c 7c 95 bd 54 45 82 be 90 5f ea bd a9 fa 9e be
       -0.072990865 -0.25443518 -0.11444008 -0.31050614
0000d0 f1 d1 e7 bd bd c1 90 be fe 5d 95 3d f8 59 2e be
       -0.1131934 -0.2827281 0.07293318 -0.17026508
0000e0 fc 2a c8 bd 3a 4a 14 3d 6c fa 98 bc bd ab 23 be
       -0.097738236 0.0362036 -0.018674098 -0.15983482
0000f0 0e 4f 38 be 24 35 d4 3d 7c 86 13 bc 73 69 05 3d
       -0.17998907 0.10361698 -0.009004232 0.032571267
000100 e8 2f 0a 3e 8f 18 8d 3e 76 5b ab 3e 2b fb 35 3e
       0.13494837 0.275578 0.33468217 0.17771594
000110 f2 12 a9 be 9b ff d3 3d be f1 b6 3d fa 2e 23 be
       -0.33022267 0.10351487 0.089328274 -0.15935889
000120 20 c6 34 3e 7e 54 59 3e 09 16 1d 3e 98 8d 45 bc
       0.17653704 0.21223637 0.15340437 -0.012057684
000130 c8 db cf 3e 2f 13 5c 3c 0f 20 ba be 56 fd 16 be
       0.40597367 0.013432308 -0.36352584 -0.14745077
000140 03 d4 a2 3e 5e ad 4c 3e 13 76 48 be 4d 1d 87 3d
       0.31802377 0.1998801 -0.19576292 0.065973856
000150 e2 fc d6 3d 73 36 82 bd 64 15 eb bd d5 68 03 3e
       0.10497452 -0.063580416 -0.11478689 0.12832959
000160 f5 99 4e 3e cf 5e 14 be a8 e2 1c 3e 1b 4f 95 3e
       0.20175917 -0.14489292 0.15320837 0.29161915
000170 d3 70 07 3e b3 ca 65 be 6e f6 a6 bd 77 4f 98 3d
       0.13226633 -0.22440605 -0.081524715 0.07437032
000180 a2 27 da 3c 81 c9 80 bc 4d 96 37 be c7 b5 80 3e
       0.026630227 -0.015721085 -0.17928429 0.25138685
000190 81 0c 3c be 6a 0a 81 3e 5e e3 3c be bd 63 a3 3d
       -0.18364145 0.25203258 -0.18446109 0.07978008
0001a0 e5 c3 ac 3e 56 a0 b0 3d ab 4e 2c be 09 56 f9 3d
       0.33743206 0.08624332 -0.16826884 0.12174613
0001b0 fd 5a 36 be bb a6 a5 be 2b 07 18 bd 22 b0 28 be
       -0.17808147 -0.32353768 -0.03711621 -0.1647344
0001c0 94 2d c8 3e 15 a7 04 3e 2e 3d 95 3d 16 b0 c1 3e
       0.39097273 0.12954362 0.0728706 0.37829655
0001d0 17 92 db bd 99 c4 75 bd 7c e2 2b bd dd 06 61 3e
       -0.10721224 -0.060001943 -0.04196404 0.21975274
0001e0 65 eb fa bd e6 25 91 3d 92 dd ab bd 2d 70 18 be
       -0.12251929 0.07087307 -0.083918706 -0.14886542
0001f0 2f 1f 1a bc c4 da 34 be fc 33 f9 3e df db 86 3d
       -0.009406849 -0.17661577 0.48672473 0.06584906

dense_1/bias f4 [64]
000000 5e 9f b9 bd 72 e1 1a bd 3b f7 a7 bd b2 4d 2b 3d
       -0.090636 -0.037812658 -0.08201452 0.041822143
000010 29 b8 75 3d ee 30 af 3e e5 6c 23 be 8e ea 30 3e
       0.059990082 0.34217018 -0.15959509 0.17276976
000020 02 67 95 be 08 b7 68 3c bd cf 0e 3e 1d 62 c8 3e
       -0.2918015 0.014203794 0.13946433 0.39137354
000030 5d 01 b3 3a bd 76 30 be 07 97 06 bd 9a cc cf bd
       0.0013657023 -0.17232795 -0.032858875 -0.101464465
000040 fa e8 29 be af 60 8a bd c7 f7 90 be b4 3f 1e bd
       -0.1659278 -0.06756722 -0.2831404 -0.03863497
000050 a5 d1 b6 3c 5f 5b b2 bd 3e 75 9b 3d 0e 82 5b 3d
       0.022316763 -0.08708834 0.075907215 0.053590827
000060 ac 1f 0a 3d 52 8e 41 3e 2d a3 94 3d 7c 20 a3 be
       0.03372161 0.18901947 0.07257686 -0.3186072
000070 22 ed 1e 3d 8e 67 c5 bd 9e e6 d4 3d 4a 0f 37 be
       0.038800366 -0.09638892 0.10395549 -0.17876926
000080 60 6a 49 3d 7b f9 de 3d 65 93 90 bd 05 41 48 3d
       0.049173713 0.108874284 -0.07059363 0.048890132
000090 29 67 07 be 98 12 10 be 34 ae 8b be aa 79 0d 3e
       -0.13222946 -0.14069593 -0.27281344 0.13815942
0000a0 fa 57 4c 3e a9 fb 56 3e 2d 46 26 be 26 7f 52 be
       0.19955435 0.20994438 -0.16237707 -0.20556316
0000b0 ea 78 af 3d 12 ec bc bd c0 ec 80 bc 61 71 2b 3e
       0.085679844 -0.09224714 -0.015737891 0.1674247
0000c0 85 80 f6 3c 28 fe bd 3d cc fb 3b be 55 f4 3e bc
       0.03009058 0.09276992 -0.18357772 -0.011654933
0000d0 ce 16 92 3c 84 d4 d6 bd 4e 0e 16 3d 35 c7 39 bc
       0.01783314 -0.10489753 0.036634736 -0.011338999
0000e0 24 34 26 3e 8c 33 ff bd b5 fb 20 3d 21 9f 8e bd
       0.16230828 -0.12461004 0.039302547 -0.06963945
0000f0 94 e7 03 3e 4a f8 a9 be b1 ed cb bd a3 39 9f 3d
       0.12881309 -0.33197242 -0.099574454 0.07774665

dense/bias f4 [64]
000000 9f 16 f4 bd 6b 6a 06 be 8d 59 56 bd 42 97 15 be
       -0.11918377 -0.13126533 -0.052331496 -0.14608482
000010 67 9d 48 bd d5 c4 2d be 4f 1b af bd 33 71 4c bd
       -0.048978236 -0.16969617 -0.085501306 -0.049912643
000020 fb 75 3d be 5c 22 db 3d bc cf 8a 3d 23 b9 1f 3e
       -0.18502037 0.10699913 0.067779034 0.15597968
000030 bf 07 ad bd 16 f8 6b 3d 05 3b 82 bd 05 dc 17 3e
       -0.08448743 0.05760964 -0.06358913 0.14830025
000040 d6 83 85 bc 82 17 07 be 76 a9 3e be fa 94 e7 bc
       -0.016298216 -0.13192561 -0.18619332 -0.02826928
000050 be 11 2c 3d 09 47 fb bb bb 3a 2e 3a 22 3e 16 be
       0.042009108 -0.00766838 0.0006646325 -0.1467214
000060 c5 9c fb bc 45 36 33 3c ae 8a 2b bd d3 12 fc 3c
       -0.030714402 0.010938232 -0.041880302 0.030770695
000070 7e d3 18 be a8 93 1c 3e 0d 07 33 be e8 18 48 3d
       -0.14924428 0.15290701 -0.17483158 0.048851877
000080 d2 9e ec bd eb 9e d2 bd f4 b8 02 3d e8 1e 7c bb
       -0.1155373 -0.102842174 0.031914666 -0.003847057
000090 39 18 b5 bd ed 22 8c bd 5b 15 05 bc e4 19 b2 bd
       -0.08842511 -0.06842599 -0.008122767 -0.086963445
0000a0 b2 63 9d 3d 0c a5 af bc e1 75 08 bd e5 4e 35 be
       0.07685031 -0.021441005 -0.033315543 -0.17705877
0000b0 52 8d 13 be bb 4d 5f be 32 59 cd bd 5e 4a b3 ba
       -0.14409378 -0.21806996 -0.10026778 -0.0013678779
0000c0 e6 6d f4 bd 33 b8 e6 3c c5 09 10 3b b3 0e 09 be
       -0.11935024 0.028164005 0.002197848 -0.13384514
0000d0 4a cb 53 bd f6 fb 28 be 86 fc 79 bd f3 5e 93 bc
       -0.051707543 -0.16502365 -0.06103184 -0.017989611
0000e0 b9 d4 ab 3d e3 eb 9c 3d 78 f6 c9 bd 63 c6 a0 3d
       0.08390183 0.07662179 -0.09861463 0.07850339
0000f0 52 13 e8 3c 69 49 5e be 5c e3 ab bd 86 d7 cc bd
       0.028329525 -0.21707691 -0.08392975 -0.10002045

conv1d_9/bias f4 [64]
000000 18 19 5f be 00 7e 71 bc 9b e9 91 3d 5d 9c 2e bd
       -0.21786916 -0.014739513 0.07124635 -0.04262959
000010 62 3e 5f bd c3 89 f5 bd 64 e5 3e 3d 32 1e 27 3e
       -0.054502852 -0.119891666 0.046605483 0.16320112
000020 0f 00 41 bd 6c 05 0d be c8 4b 34 be 42 11 d1 3c
       -0.047119197 -0.137716 -0.17607033 0.025520924
000030 c6 0c 2e bd 90 f7 88 bc 43 e6 ac bc 9b 63 4c 3d
       -0.04249265 -0.01671961 -0.021105891 0.04989968
000040 21 1b 13 bd d1 10 9b bd f5 8c 59 3c 88 63 a4 3d
       -0.035914544 -0.07571567 0.013278236 0.080267966
000050 ec 24 90 bc 57 00 15 be ad 76 11 be ba 57 e8 bd
       -0.01759573 -0.14550911 -0.14205427 -0.113448575
000060 78 4b 8e 3d 0d e1 61 bd 51 ca a9 3c e9 e0 0b bc
       0.06947988 -0.055146266 0.020726355 -0.0085375095
000070 d2 ce 30 bd 28 c5 8c 3d e1 67 c2 3d 97 a1 f0 3d
       -0.04316599 0.06873542 0.094924696 0.11749571
000080 c4 a0 08 be 5f 36 d6 bc 42 a4 f9 bd ab e1 04 3e
       -0.13342577 -0.026148973 -0.12189533 0.1297671
000090 3b bb aa 3d 04 80 1d bd c9 48 00 bd 16 7b 53 bd
       0.08336493 -0.038452163 -0.031319413 -0.051631056
0000a0 c1 cd b7 bd be e5 6f 3d 8c ea 0a 3e 3e 59 0e bb
       -0.08974791 0.05856871 0.13566035 -0.0021720673
0000b0 4a 00 82 bd 86 ca 91 3d 81 0b 00 3e 4f b7 a7 bc
       -0.063477114 0.071187064 0.12504388 -0.02047315
0000c0 fa 32 c1 3d f8 75 6d 3d 29 a8 b8 bc 86 c6 d8 3b
       0.09433551 0.057973832 -0.022541123 0.0066154627
0000d0 c3 19 fc bc 8a bf 21 be 06 7c 58 bd cc 40 ad 3d
       -0.030774003 -0.15795723 -0.052852653 0.08459625
0000e0 07 39 9e bc 19 6b 8c bc de d8 e4 bd 93 50 47 be
       -0.019314302 -0.017140912 -0.11174177 -0.1946433
0000f0 0c 75 59 3d 73 a2 b6 3c 53 d1 8d bd af 88 b8 bd
       0.05309014 0.022294259 -0.06924691 -0.09010445

conv1d_8/bias f4 [32]
000000 00 e1 f7 bd d2 b1 fc 3c 43 79 65 bd 67 fa 77 bd
       -0.12103462 0.03084651 -0.056023847 -0.060541537
000010 cf 13 1e bd 38 e2 a8 bd e1 ea bb bc ee 4c 76 3e
       -0.03859311 -0.08246273 -0.022939147 0.24052784
000020 40 c0 b4 3c 7c 1a 56 bd ef e8 3f bd a3 5f a1 3d
       0.022064328 -0.05227135 -0.046853002 0.078795694
000030 75 16 a7 bc 7f ed 8c 3c 55 ed 21 3d 0e 0f b7 bd
       -0.02039645 0.01720309 0.039532978 -0.08938418
000040 00 68 e7 bd eb 80 28 3d 14 67 5f 3c 7f cc de bd
       -0.11299133 0.04113857 0.013635416 -0.10878848
000050 ed 95 0d be f5 58 25 3d 89 24 33 bb 7c 81 ca bc
       -0.13826723 0.04036804 -0.002733501 -0.024719946
000060 ec 18 d7 3d 7c d9 5b bc 2d ab c0 bd 5f 23 6b bd
       0.105028 -0.013418552 -0.09407649 -0.05740678
000070 23 76 e1 3d 42 be 88 bd 9f b8 07 bd d7 ba 2b 3c
       0.11008861 -0.06676914 -0.033135053 0.010481558

conv1d_10/bias f4 [128]
000000 1d aa aa bd 09 f1 03 be d3 9d 2e bc 32 22 8b 3d
       -0.08333228 -0.12884916 -0.010657745 0.067936316
000010 98 83 d0 bc d0 4e 0c be 20 f2 f6 bd 80 63 0c bd
       -0.025453374 -0.1370194 -0.120579004 -0.034274578
000020 90 ff 0b be e6 82 b8 bc 4a b5 6f bc 96 8e 04 3c
       -0.13671708 -0.022523355 -0.014630625 0.008090636
000030 7f 88 3c be 2a e9 30 bd 43 83 f0 bd e4 1a e4 3c
       -0.18411444 -0.043191113 -0.11743786 0.027844854
000040 4a e9 55 bd f5 93 21 be 2f 48 f0 bd 14 fb c3 bd
       -0.052224435 -0.15779097 -0.11732518 -0.09569374
000050 24 18 24 be 0e c1 95 bd 36 48 32 b9 5a 79 b0 bd
       -0.16024834 -0.07312213 -0.00017002304 -0.08616896
000060 be 1a 49 3c 43 c0 66 3c 11 f6 3a bd f8 62 b7 3d
       0.012274442 0.014083925 -0.045644823 0.08954424
000070 51 af 9c bd a2 be e6 bd dc 73 be bd 72 9c c1 3d
       -0.076506265 -0.11266829 -0.09299442 0.09453668
000080 04 69 dd bd 79 b4 4d bd 22 f8 12 bd 58 0d 6e bd
       -0.10811046 -0.05022094 -0.03588117 -0.058118194
000090 26 f2 d0 bd ac 00 8f 3a f0 82 97 bd 19 ed cf 3d
       -0.10202436 0.0010910234 -0.07398021 0.10152645
0000a0 3b 49 b2 bd d3 78 e2 bd 56 80 58 3d bb c4 b3 bd
       -0.08705374 -0.11058202 0.052856766 -0.08777758
0000b0 f7 9e 71 3d 35 67 a5 3d 01 14 c6 bd 5e 42 b4 3c
       0.05898949 0.08076326 -0.09671784 0.022004303
0000c0 9c 6e b6 3c f3 3a 34 3d a8 48 3a bd f3 ac 8f 3d
       0.02226954 0.04400153 -0.045479447 0.07015409
0000d0 09 08 00 be b1 1f 45 3d 73 2c 1e bd bb aa 7e bd
       -0.12503065 0.048125926 -0.03861661 -0.06217454
0000e0 52 7e 23 be 4a ba 69 bd 16 a6 11 be 6c 58 03 3d
       -0.15966156 -0.057062425 -0.14223513 0.032066748
0000f0 d9 29 0b be 56 3d c4 3c 4c 87 2c be 86 ae 9c 3d
       -0.13590182 0.023955029 -0.16848487 0.07650475
000100 ff 22 8c bc d3 51 2b bc f0 ba e9 bd a1 e6 4e bd
       -0.017106531 -0.01045652 -0.114126086 -0.050512914
000110 02 d5 71 be 22 0c 9b bc d5 b9 82 bb 05 b2 16 bd
       -0.23616412 -0.018926684 -0.003989438 -0.036790866
000120 44 15 42 bd 06 e7 ac bd bb d4 5d bd 4f 5a 3d bd
       -0.04738356 -0.08442502 -0.054157954 -0.046228703
000130 e3 6c a9 bd 89 2a 20 3c 9d f8 04 be 4f e4 38 be
       -0.082727216 0.009775766 -0.12985463 -0.18055843
000140 58 69 b2 bc 70 13 05 be b6 23 84 3d f5 36 b2 bd
       -0.021778747 -0.12995696 0.06452124 -0.087018885
000150 81 2e f1 bd 70 ce 41 bd 01 16 eb 3d 16 ae 51 bd
       -0.11776448 -0.047316015 0.11478806 -0.051191412
000160 d2 4f 33 be 9b 8a 55 be 06 f3 b4 bd 21 e0 87 bd
       -0.17510918 -0.20853655 -0.088354155 -0.06634546
000170 8e 25 56 3d c0 67 06 3e 9d 98 a0 bd 3b 32 28 bd
       0.05228191 0.13125515 -0.07841609 -0.04106353
000180 37 48 98 bd bb ec 01 be bc e8 0e be 7b e9 89 3d
       -0.07435649 -0.12687962 -0.13955969 0.06733986
000190 59 16 36 be ca 7d c2 bd 2e 35 95 bd 5f a0 8b 3d
       -0.17781962 -0.094966486 -0.07285534 0.06817698
0001a0 29 3d 7b 3c 6a 71 7f bd 98 f4 df bd 90 38 b5 3c
       0.015334406 -0.06236402 -0.109353244 0.022121698
0001b0 42 33 d6 bc 46 27 06 be 50 e8 1d 3d 56 23 32 bd
       -0.026147489 -0.13100919 0.03855163 -0.04349073
0001c0 61 d7 cb 3d 54 f8 24 3c da d1 e2 3d b5 4f f5 3d
       0.0995319 0.010068972 0.11075182 0.119780935
0001d0 52 17 70 bc 9f c7 05 3d 7e 32 1d bd 94 8f 38 3e
       -0.0146539975 0.032661077 -0.03837823 0.1802352
0001e0 de cd 63 bd 0a 7a 28 be 67 0a c6 bc 9e 4a 7a bc
       -0.055616252 -0.16452804 -0.024174882 -0.015276579
0001f0 23 60 84 bd 95 59 11 be 95 be 92 bd 2d a5 d1 bd
       -0.06463649 -0.14194329 -0.07165257 -0.10236583

sequential_2/dense/MatMul i1 [64, 256] scale=0.004041253 zero_point=0
000000 f5 d2 29 cd 1d 38 ef e4 01 f4 f5 fc c9 df bb e5
       -0.044453785 -0.18589765 0.16569138 -0.2061039 0.117196344 0.22631018 -0.068701304 -0.11315509 0.004041253 -0.04849504 -0.044453785 -0.016165012 -0.22226892 -0.13336135 -0.27884647 -0.109113835
000010 07 2f 14 26 c5 e6 02 ff e9 de 0e d3 ef da 05 0c
       0.028288772 0.1899389 0.08082506 0.15356761 -0.23843393 -0.10507258 0.008082506 -0.004041253 -0.092948824 -0.13740261 0.056577545 -0.1818564 -0.068701304 -0.15356761 0.020206265 0.04849504
000020 c9 f3 02 f4 d5 13 e6 cd 27 0a dd 08 05 de 0a 00
       -0.22226892 -0.05253629 0.008082506 -0.04849504 -0.17377388 0.076783806 -0.10507258 -0.2061039 0.15760887 0.04041253 -0.14144386 0.032330025 0.020206265 -0.13740261 0.04041253 0.0
000030 dc f4 e9 d8 04 04 15 fe 11 0d 33 fb 0a 1c 29 17
       -0.14548512 -0.04849504 -0.092948824 -0.16165012 0.016165012 0.016165012 0.084866315 -0.008082506 0.068701304 0.05253629 0.2061039 -0.020206265 0.04041253 0.11315509 0.16569138 0.092948824
000040 f7 d2 e5 17 f3 3a 04 ef 26 20 e0 35 0b ff 20 17
       -0.03637128 -0.18589765 -0.109113835 0.092948824 -0.05253629 0.23439269 0.016165012 -0.068701304 0.15356761 0.1293201 -0.1293201 0.21418642 0.044453785 -0.004041253 0.1293201 0.092948824
000050 1e 32 13 ee fc d2 d9 e2 df e8 fd f9 0e da df ed
       0.12123759 0.20206265 0.076783806 -0.07274256 -0.016165012 -0.18589765 -0.15760887 -0.12123759 -0.13336135 -0.09699008 -0.01212376 -0.028288772 0.056577545 -0.15356761 -0.13336135 -0.076783806
000060 f4 0a 03 10 09 e9 26 05 e0 d1 1c fe 18 e7 d4 02
       -0.04849504 0.04041253 0.01212376 0.06466005 0.03637128 -0.092948824 0.15356761 0.020206265 -0.1293201 -0.1899389 0.11315509 -0.008082506 0.09699008 -0.101031326 -0.17781514 0.008082506
000070 f4 05 e8 15 c4 e9 01 d1 14 38 f1 00 20 1d 0a 02
       -0.04849504 0.020206265 -0.09699008 0.084866315 -0.24247518 -0.092948824 0.004041253 -0.1899389 0.08082506 0.22631018 -0.060618795 0.0 0.1293201 0.117196344 0.04041253 0.008082506
000080 0c f4 f0 f1 01 2f 12 e8 ff e7 e2 0a 0d f3 e4 ab
       0.04849504 -0.04849504 -0.06466005 -0.060618795 0.004041253 0.1899389 0.07274256 -0.09699008 -0.004041253 -0.101031326 -0.12123759 0.04041253 0.05253629 -0.05253629 -0.11315509 -0.34350652
000090 25 1a 44 49 2c 1d 09 32 da db 10 da 0a ec 14 d7
       0.14952637 0.10507258 0.27480522 0.2950115 0.17781514 0.117196344 0.03637128 0.20206265 -0.15356761 -0.14952637 0.06466005 -0.15356761 0.04041253 -0.08082506 0.08082506 -0.16569138
0000a0 f5 15 20 0f e5 cc 1f b6 33 f5 db df 4f fe 1b 12
       -0.044453785 0.084866315 0.1293201 0.060618795 -0.109113835 -0.21014516 0.12527885 -0.29905275 0.2061039 -0.044453785 -0.14952637 -0.13336135 0.319259 -0.008082506 0.109113835 0.07274256
0000b0 18 bf ea de 36 0d 08 f9 e2 ec 22 03 10 ee fe 33
       0.09699008 -0.26268145 -0.08890757 -0.13740261 0.21822767 0.05253629 0.032330025 -0.028288772 -0.12123759 -0.08082506 0.13740261 0.01212376 0.06466005 -0.07274256 -0.008082506 0.2061039
0000c0 06 f3 23 ef 29 02 0c 1a dc 05 e8 1c 0a f1 de 25
       0.02424752 -0.05253629 0.14144386 -0.068701304 0.16569138 0.008082506 0.04849504 0.10507258 -0.14548512 0.020206265 -0.09699008 0.11315509 0.04041253 -0.060618795 -0.13740261 0.14952637
0000d0 fc 0f 07 0a 13 fd e4 d1 2b ff 1a 08 04 f1 1a 0f
       -0.016165012 0.060618795 0.028288772 0.04041253 0.076783806 -0.01212376 -0.11315509 -0.1899389 0.17377388 -0.004041253 0.10507258 0.032330025 0.016165012 -0.060618795 0.10507258 0.060618795
0000e0 fc 11 3d f3 0e f5 eb e4 ee f7 f5 05 0c 3d e7 c1
       -0.016165012 0.068701304 0.24651644 -0.05253629 0.056577545 -0.044453785 -0.084866315 -0.11315509 -0.07274256 -0.03637128 -0.044453785 0.020206265 0.04849504 0.24651644 -0.101031326 -0.25459895
0000f0 f8 ff bc f6 01 1c f9 1c f1 16 e6 f1 0b 23 e1 ec
       -0.032330025 -0.004041253 -0.27480522 -0.04041253 0.004041253 0.11315509 -0.028288772 0.11315509 -0.060618795 0.08890757 -0.10507258 -0.060618795 0.044453785 0.14144386 -0.12527885 -0.08082506

sequential_2/dense_1/MatMul i1 [64, 64] scale=0.006002157 zero_point=0
000000 02 11 ec cc b6 fb e5 07 2e fe 1a d7 be e8 fd 03
       0.012004314 0.10203667 -0.12004314 -0.31211215 -0.44415963 -0.030010786 -0.16205823 0.042015098 0.27609923 -0.012004314 0.15605608 -0.24608843 -0.39614236 -0.14405176 -0.01800647 0.01800647
000010 d6 b0 26 da 07 c4 fa 02 cf 08 0c cc e9 0e 40 10
       -0.2520906 -0.48017257 0.22808197 -0.22808197 0.042015098 -0.36012942 -0.03601294 0.012004314 -0.29410568 0.048017256 0.07202588 -0.31211215 -0.13804962 0.084030196 0.38413805 0.09603451
000020 e9 c5 16 e4 e0 08 0a 20 d8 0a dd 20 eb f8 22 d7
       -0.13804962 -0.35412726 0.13204746 -0.16806039 -0.19206902 0.048017256 0.06002157 0.19206902 -0.24008629 0.06002157 -0.2100755 0.19206902 -0.1260453 -0.048017256 0.20407334 -0.24608843
000030 c3 f5 02 0c 0a 14 d1 16 f3 c2 13 1f cb fd f4 e6
       -0.36613157 -0.06602373 0.012004314 0.07202588 0.06002157 0.12004314 -0.2821014 0.13204746 -0.07802804 -0.37213373 0.114040986 0.18606687 -0.3181143 -0.01800647 -0.07202588 -0.15605608
000040 22 02 ca 1e d4 dc b8 1c 18 00 11 fa dc 1f b7 1e
       0.20407334 0.012004314 -0.32411647 0.18006471 -0.26409492 -0.21607766 -0.4321553 0.16806039 0.14405176 0.0 0.10203667 -0.03601294 -0.21607766 0.18606687 -0.43815747 0.18006471
000050 dc df e0 c6 1e ed 0c c7 d6 ed 20 d6 06 0d 0c 97
       -0.21607766 -0.19807118 -0.19206902 -0.3481251 0.18006471 -0.114040986 0.07202588 -0.34212294 -0.2520906 -0.114040986 0.19206902 -0.2520906 0.03601294 0.07802804 0.07202588 -0.6302265
000060 ff 21 ff e8 06 b0 de 2f 02 13 31 ff fb 1e fc 27
       -0.006002157 0.19807118 -0.006002157 -0.14405176 0.03601294 -0.48017257 -0.20407334 0.2821014 0.012004314 0.114040986 0.29410568 -0.006002157 -0.030010786 0.18006471 -0.024008628 0.23408413
000070 16 fc 1c 1b b7 fe df 00 04 19 fc 0c c6 23 ef ea
       0.13204746 -0.024008628 0.16806039 0.16205823 -0.43815747 -0.012004314 -0.19807118 0.0 0.024008628 0.15005392 -0.024008628 0.07202588 -0.3481251 0.2100755 -0.10203667 -0.13204746
000080 09 f2 21 08 01 20 16 e2 f3 ff 04 14 15 bd 10 06
       0.054019414 -0.084030196 0.19807118 0.048017256 0.006002157 0.19206902 0.13204746 -0.18006471 -0.07802804 -0.006002157 0.024008628 0.12004314 0.1260453 -0.40214452 0.09603451 0.03601294
000090 c8 17 27 fa dc dd c8 24 0c f4 15 b5 11 fc 0e 13
       -0.33612078 0.13804962 0.23408413 -0.03601294 -0.21607766 -0.2100755 -0.33612078 0.21607766 0.07202588 -0.07202588 0.1260453 -0.45016178 0.10203667 -0.024008628 0.084030196 0.114040986
0000a0 05 15 ec 1a ea f7 16 cf e9 ce fb ff 30 0f 28 d5
       0.030010786 0.1260453 -0.12004314 0.15605608 -0.13204746 -0.054019414 0.13204746 -0.29410568 -0.13804962 -0.30010784 -0.030010786 -0.006002157 0.28810352 0.090032354 0.24008629 -0.25809276
0000b0 fd b4 e9 db 02 e9 16 f6 05 22 e4 dc 07 07 f6 39
       -0.01800647 -0.45616394 -0.13804962 -0.22207981 0.012004314 -0.13804962 0.13204746 -0.06002157 0.030010786 0.20407334 -0.16806039 -0.21607766 0.042015098 0.042015098 -0.06002157 0.34212294
0000c0 f4 1e b0 28 c4 d2 ec e3 19 02 08 18 be f3 d4 17
       -0.07202588 0.18006471 -0.48017257 0.24008629 -0.36012942 -0.27609923 -0.12004314 -0.17406255 0.15005392 0.012004314 0.048017256 0.14405176 -0.39614236 -0.07802804 -0.26409492 0.13804962
0000d0 0f ca f8 17 ed e3 1d d3 04 0e 02 02 26 f9 2c b0
       0.090032354 -0.32411647 -0.048017256 0.13804962 -0.114040986 -0.17406255 0.17406255 -0.27009708 0.024008628 0.084030196 0.012004314 0.012004314 0.22808197 -0.042015098 0.26409492 -0.48017257
0000e0 0d e3 25 f3 0f b9 c9 07 df 04 3c ff f8 20 cf 0b
       0.07802804 -0.17406255 0.22207981 -0.07802804 0.090032354 -0.42615315 -0.33011863 0.042015098 -0.19807118 0.024008628 0.36012942 -0.006002157 -0.048017256 0.19206902 -0.29410568 0.06602373
0000f0 17 19 0c 1b b4 f6 c0 12 09 04 08 ec c5 09 15 0f
       0.13804962 0.15005392 0.07202588 0.16205823 -0.45616394 -0.06002157 -0.38413805 0.10803883 0.054019414 0.024008628 0.048017256 -0.12004314 -0.35412726 0.054019414 0.1260453 0.090032354

sequential_2/dense_2/MatMul i1 [128, 64] scale=0.00452494 zero_point=0
000000 11 33 fc 0c e0 10 db 12 07 cb 05 0e 14 ee 1c 0e
       0.07692398 0.23077194 -0.01809976 0.05429928 -0.14479809 0.07239904 -0.16742279 0.08144892 0.031674583 -0.23982182 0.022624701 0.063349165 0.090498805 -0.08144892 0.12669833 0.063349165
000010 f5 19 f9 03 f7 fe 28 f4 f7 01 f5 e2 eb 2e ac 2f
       -0.04977434 0.11312351 -0.031674583 0.01357482 -0.04072446 -0.00904988 0.18099761 -0.05429928 -0.04072446 0.00452494 -0.04977434 -0.13574821 -0.095023744 0.20814724 -0.38009498 0.21267219
000020 09 0e 1d 23 bc d9 e5 0b ed fb f1 db f0 16 de 05
       0.04072446 0.063349165 0.13122326 0.15837291 -0.30769593 -0.17647266 -0.122173384 0.04977434 -0.08597387 -0.022624701 -0.067874104 -0.16742279 -0.07239904 0.09954868 -0.15384796 0.022624701
000030 ce 17 05 ed ef bc 00 1b 27 f0 07 f4 ff f8 fa 20
       -0.22624701 0.10407362 0.022624701 -0.08597387 -0.07692398 -0.30769593 0.0 0.122173384 0.17647266 -0.07239904 0.031674583 -0.05429928 -0.00452494 -0.03619952 -0.02714964 0.14479809
000040 04 15 17 29 c6 46 d9 e7 dc 03 f1 07 25 cf 1b eb
       0.01809976 0.095023744 0.10407362 0.18552254 -0.26244652 0.31674582 -0.17647266 -0.11312351 -0.16289784 0.01357482 -0.067874104 0.031674583 0.16742279 -0.22172207 0.122173384 -0.095023744
000050 0e 26 b4 1c 18 a0 e8 e4 0e dc d4 e9 3e f0 28 df
       0.063349165 0.17194773 -0.34389547 0.12669833 0.10859856 -0.43439424 -0.10859856 -0.12669833 0.063349165 -0.16289784 -0.19909737 -0.10407362 0.28054628 -0.07239904 0.18099761 -0.14932303
000060 c2 08 ac d8 0f e4 1a e1 18 01 d4 92 31 b9 f2 0f
       -0.28054628 0.03619952 -0.38009498 -0.18099761 0.067874104 -0.12669833 0.117648445 -0.14027314 0.10859856 0.00452494 -0.19909737 -0.49774343 0.22172207 -0.32127076 -0.063349165 0.067874104
000070 e7 c5 b8 14 f4 08 d9 0e dd d1 13 fe c3 c9 e6 11
       -0.11312351 -0.26697147 -0.32579568 0.090498805 -0.05429928 0.03619952 -0.17647266 0.063349165 -0.15837291 -0.21267219 0.08597387 -0.00904988 -0.27602136 -0.24887171 -0.117648445 0.07692398
000080 25 00 f8 ea ee 2c 12 f1 f6 c0 da 18 f2 f6 17 ef
       0.16742279 0.0 -0.03619952 -0.09954868 -0.08144892 0.19909737 0.08144892 -0.067874104 -0.045249403 -0.28959617 -0.17194773 0.10859856 -0.063349165 -0.045249403 0.10407362 -0.07692398
000090 e5 ea f3 08 04 bb 12 08 da ec 19 e1 fa e1 b8 1a
       -0.122173384 -0.09954868 -0.058824223 0.03619952 0.01809976 -0.31222087 0.08144892 0.03619952 -0.17194773 -0.090498805 0.11312351 -0.14027314 -0.02714964 -0.14027314 -0.32579568 0.117648445
0000a0 09 0d 26 f8 e1 b3 07 be 2c 0d ce b2 32 b5 1d 06
       0.04072446 0.058824223 0.17194773 -0.03619952 -0.14027314 -0.34842038 0.031674583 -0.29864606 0.19909737 0.058824223 -0.22624701 -0.35294533 0.22624701 -0.33937052 0.13122326 0.02714964
0000b0 ea e8 de fe dd ba f9 15 ea eb 23 d4 0e b4 cf 14
       -0.09954868 -0.10859856 -0.15384796 -0.00904988 -0.15837291 -0.31674582 -0.031674583 0.095023744 -0.09954868 -0.095023744 0.15837291 -0.19909737 0.063349165 -0.34389547 -0.22172207 0.090498805
0000c0 fd fe 15 ff e9 12 32 09 e1 0b 11 e1 00 e0 d3 e5
       -0.01357482 -0.00904988 0.095023744 -0.00452494 -0.10407362 0.08144892 0.22624701 0.04072446 -0.14027314 0.04977434 0.07692398 -0.14027314 0.0 -0.14479809 -0.20362231 -0.122173384
0000d0 c7 df 0a f2 16 f9 b8 19 f0 f4 00 bf e8 0a 1c 28
       -0.25792158 -0.14932303 0.045249403 -0.063349165 0.09954868 -0.031674583 -0.32579568 0.11312351 -0.07239904 -0.05429928 0.0 -0.29412112 -0.10859856 0.045249403 0.12669833 0.18099761
0000e0 e2 f5 cd db 02 11 ff 41 01 0d 35 38 cd 16 c2 fd
       -0.13574821 -0.04977434 -0.23077194 -0.16742279 0.00904988 0.07692398 -0.00452494 0.29412112 0.00452494 0.058824223 0.23982182 0.25339666 -0.23077194 0.09954868 -0.28054628 -0.01357482
0000f0 ed 17 06 2b 1f 06 eb 09 10 14 fa d5 d7 36 f1 f6
       -0.08597387 0.10407362 0.02714964 0.19457243 0.14027314 0.02714964 -0.095023744 0.04072446 0.07239904 0.090498805 -0.02714964 -0.19457243 -0.18552254 0.24434677 -0.067874104 -0.045249403

sequential_2/dense_3/MatMul i1 [128, 128] scale=0.0038069477 zero_point=0
000000 2b 2e e2 32 0a 0c f1 df ee cd 19 fc e7 f1 b0 ed
       0.16369875 0.1751196 -0.11420843 0.19034739 0.03806948 0.045683373 -0.057104215 -0.12562928 -0.06852506 -0.19415434 0.095173694 -0.015227791 -0.095173694 -0.057104215 -0.30455583 -0.07233201
000010 10 15 24 0c 0b e9 07 1f e8 15 20 d2 16 fe d8 39
       0.060911164 0.0799459 0.13705012 0.045683373 0.041876424 -0.0875598 0.026648633 0.11801538 -0.091366746 0.0799459 0.12182233 -0.1751196 0.08375285 -0.0076138955 -0.15227792 0.21699601
000020 01 24 18 16 03 f9 db ff c9 b8 e9 ec 0d e2 31 ff
       0.0038069477 0.13705012 0.091366746 0.08375285 0.011420843 -0.026648633 -0.14085707 -0.0038069477 -0.20938213 -0.27410024 -0.0875598 -0.07613896 0.04949032 -0.11420843 0.18654044 -0.0038069477
000030 03 f7 f8 e0 c9 ca 52 07 33 d4 19 11 3b da 06 01
       0.011420843 -0.03426253 -0.030455582 -0.12182233 -0.20938213 -0.20557518 0.3121697 0.026648633 0.19415434 -0.1675057 0.095173694 0.06471811 0.22460991 -0.14466402 0.022841686 0.0038069477
000040 e3 ef 11 fa e3 c7 f9 d9 14 f6 ee db 2f fe dc e4
       -0.11040148 -0.06471811 0.06471811 -0.022841686 -0.11040148 -0.21699601 -0.026648633 -0.14847097 0.07613896 -0.03806948 -0.06852506 -0.14085707 0.17892654 -0.0076138955 -0.13705012 -0.10659453
000050 df 42 c1 ee 24 ec e2 e5 23 07 3b 02 f8 f5 c3 0a
       -0.12562928 0.25125855 -0.2398377 -0.06852506 0.13705012 -0.07613896 -0.11420843 -0.10278759 0.13324317 0.026648633 0.22460991 0.0076138955 -0.030455582 -0.041876424 -0.23222381 0.03806948
000060 23 0d eb 5a 04 4c 0c de 1f 02 03 90 be 17 e3 ff
       0.13324317 0.04949032 -0.0799459 0.3426253 0.015227791 0.28932804 0.045683373 -0.12943622 0.11801538 0.0076138955 0.011420843 -0.42637813 -0.25125855 0.0875598 -0.11040148 -0.0038069477
000070 0f e4 be 03 e2 05 0c 00 34 cd 0e ff d4 dc 01 fe
       0.057104215 -0.10659453 -0.25125855 0.011420843 -0.11420843 0.01903474 0.045683373 0.0 0.19796129 -0.19415434 0.053297266 -0.0038069477 -0.1675057 -0.13705012 0.0038069477 -0.0076138955
000080 f1 02 d8 32 f6 ba f0 e3 10 23 d7 16 fc 19 07 f4
       -0.057104215 0.0076138955 -0.15227792 0.19034739 -0.03806948 -0.26648635 -0.060911164 -0.11040148 0.060911164 0.13324317 -0.15608485 0.08375285 -0.015227791 0.095173694 0.026648633 -0.045683373
000090 35 e4 b3 f1 fb ea e7 e7 38 4b d1 eb 16 e8 27 d9
       0.20176823 -0.10659453 -0.293135 -0.057104215 -0.01903474 -0.08375285 -0.095173694 -0.095173694 0.21318907 0.2855211 -0.17892654 -0.0799459 0.08375285 -0.091366746 0.14847097 -0.14847097
0000a0 27 ce 2b 17 e0 1c 17 0a 18 01 e5 f1 1e bf 0a fa
       0.14847097 -0.19034739 0.16369875 0.0875598 -0.12182233 0.10659453 0.0875598 0.03806948 0.091366746 0.0038069477 -0.10278759 -0.057104215 0.11420843 -0.2474516 0.03806948 -0.022841686
0000b0 f3 f9 0b 38 cf 03 fd f9 26 3d fe 02 f2 15 25 d9
       -0.04949032 -0.026648633 0.041876424 0.21318907 -0.18654044 0.011420843 -0.011420843 -0.026648633 0.14466402 0.23222381 -0.0076138955 0.0076138955 -0.053297266 0.0799459 0.14085707 -0.14847097
0000c0 11 3b ed db 1c 11 f6 09 b0 f8 f5 2d fb 1c 16 08
       0.06471811 0.22460991 -0.07233201 -0.14085707 0.10659453 0.06471811 -0.03806948 0.03426253 -0.30455583 -0.030455582 -0.041876424 0.17131265 -0.01903474 0.10659453 0.08375285 0.030455582
0000d0 c9 fa 11 0c 4e 15 fc c0 17 20 d8 08 fe 40 28 de
       -0.20938213 -0.022841686 0.06471811 0.045683373 0.29694194 0.0799459 -0.015227791 -0.24364465 0.0875598 0.12182233 -0.15227792 0.030455582 -0.0076138955 0.24364465 0.15227792 -0.12943622
0000e0 ce cd 3b f2 15 d0 e7 1e f4 b6 2f 24 16 41 de e8
       -0.19034739 -0.19415434 0.22460991 -0.053297266 0.0799459 -0.18273349 -0.095173694 0.11420843 -0.045683373 -0.28171414 0.17892654 0.13705012 0.08375285 0.2474516 -0.12943622 -0.091366746
0000f0 f8 a4 eb 21 3a cf 17 09 0e 10 08 17 15 f8 e7 0f
       -0.030455582 -0.3502392 -0.0799459 0.12562928 0.22080296 -0.18654044 0.0875598 0.03426253 0.053297266 0.060911164 0.030455582 0.0875598 0.0799459 -0.030455582 -0.095173694 0.057104215

sequential_2/dense_4/MatMul i1 [26, 128] scale=0.0086727915 zero_point=0
000000 13 0b 00 0d b8 f4 d2 ca 17 d9 df e1 fe f7 e5 fa
       0.16478305 0.095400706 0.0 0.11274629 -0.62444097 -0.104073495 -0.3989484 -0.46833074 0.1994742 -0.33823887 -0.28620213 -0.26885653 -0.017345583 -0.07805512 -0.23416537 -0.052036747
000010 f5 f2 c9 e8 15 0b d8 e6 f0 e5 ce 06 ec bc e0 f7
       -0.095400706 -0.12141908 -0.47700354 -0.20814699 0.18212862 0.095400706 -0.34691167 -0.22549258 -0.13876466 -0.23416537 -0.4336396 0.052036747 -0.17345583 -0.5897498 -0.27752933 -0.07805512
000020 04 03 0d ff f8 cc f7 ed f3 e4 c9 10 e8 f4 f8 f5
       0.034691166 0.026018374 0.11274629 -0.0086727915 -0.06938233 -0.45098516 -0.07805512 -0.16478305 -0.11274629 -0.24283816 -0.47700354 0.13876466 -0.20814699 -0.104073495 -0.06938233 -0.095400706
000030 d5 0c cb 0d ef 0a da 13 df 03 c6 b8 e4 04 e5 e6
       -0.37293005 0.104073495 -0.45965794 0.11274629 -0.14743745 0.08672792 -0.3295661 0.16478305 -0.28620213 0.026018374 -0.5030219 -0.62444097 -0.24283816 0.034691166 -0.23416537 -0.22549258
000040 c2 e9 bb cf f8 0a 10 19 db cd eb da d0 ff 1b f0
       -0.53771305 -0.1994742 -0.5984226 -0.42496678 -0.06938233 0.08672792 0.13876466 0.2168198 -0.3208933 -0.44231236 -0.18212862 -0.3295661 -0.41629398 -0.0086727915 0.23416537 -0.13876466
000050 e8 f3 f7 f6 10 c9 e2 e4 03 fe 08 11 db 11 b7 ea
       -0.20814699 -0.11274629 -0.07805512 -0.08672792 0.13876466 -0.47700354 -0.26018375 -0.24283816 0.026018374 -0.017345583 0.06938233 0.14743745 -0.3208933 0.14743745 -0.6331138 -0.19080141
000060 bf 09 e3 0b ed eb f9 0a af 0d e6 06 fa 14 b9 11
       -0.56373143 0.07805512 -0.25151095 0.095400706 -0.16478305 -0.18212862 -0.06070954 0.08672792 -0.7024961 0.11274629 -0.22549258 0.052036747 -0.052036747 0.17345583 -0.6157682 0.14743745
000070 0e 0d e2 c5 f3 de 0c ea d8 c1 00 01 fd cb f4 14
       0.12141908 0.11274629 -0.26018375 -0.5116947 -0.11274629 -0.2948749 0.104073495 -0.19080141 -0.34691167 -0.5463859 0.0 0.0086727915 -0.026018374 -0.45965794 -0.104073495 0.17345583
000080 0f e6 dc 0d d6 eb e9 dd 16 ec ca d8 10 d9 fe 05
       0.13009188 -0.22549258 -0.31222048 0.11274629 -0.36425725 -0.18212862 -0.1994742 -0.3035477 0.19080141 -0.17345583 -0.46833074 -0.34691167 0.13876466 -0.33823887 -0.017345583 0.04336396
000090 00 fa 06 e9 14 de c8 ed e3 07 01 0f 0b ca 08 eb
       0.0 -0.052036747 0.052036747 -0.1994742 0.17345583 -0.2948749 -0.48567632 -0.16478305 -0.25151095 0.06070954 0.0086727915 0.13009188 0.095400706 -0.46833074 0.06938233 -0.18212862
0000a0 f1 f1 06 0a 11 b9 08 fe f4 08 d6 0a 0e 10 d6 e9
       -0.13009188 -0.13009188 0.052036747 0.08672792 0.14743745 -0.6157682 0.06938233 -0.017345583 -0.104073495 0.06938233 -0.36425725 0.08672792 0.12141908 0.13876466 -0.36425725 -0.1994742
0000b0 f6 04 fc 19 e8 ff e3 0f ff f6 a1 dc 06 e9 de d4
       -0.08672792 0.034691166 -0.034691166 0.2168198 -0.20814699 -0.0086727915 -0.25151095 0.13009188 -0.0086727915 -0.08672792 -0.8239152 -0.31222048 0.052036747 -0.1994742 -0.2948749 -0.38160282
0000c0 e6 e4 cd d5 f5 0e 0e ea d1 e8 de ec d1 11 ff eb
       -0.22549258 -0.24283816 -0.44231236 -0.37293005 -0.095400706 0.12141908 0.12141908 -0.19080141 -0.4076212 -0.20814699 -0.2948749 -0.17345583 -0.4076212 0.14743745 -0.0086727915 -0.18212862
0000d0 e6 08 01 f7 00 e1 ed db 07 e8 ee d6 df 07 ca cd
       -0.22549258 0.06938233 0.0086727915 -0.07805512 0.0 -0.26885653 -0.16478305 -0.3208933 0.06070954 -0.20814699 -0.15611024 -0.36425725 -0.28620213 0.06070954 -0.46833074 -0.44231236
0000e0 e4 ed d4 06 05 05 fc f9 f0 dd d9 10 e4 06 d6 f4
       -0.24283816 -0.16478305 -0.38160282 0.052036747 0.04336396 0.04336396 -0.034691166 -0.06070954 -0.13876466 -0.3035477 -0.33823887 0.13876466 -0.24283816 0.052036747 -0.36425725 -0.104073495
0000f0 10 0c e6 ea d1 04 11 e2 e2 c7 12 0d 12 be e5 0a
       0.13876466 0.104073495 -0.22549258 -0.19080141 -0.4076212 0.034691166 0.14743745 -0.26018375 -0.26018375 -0.49434912 0.15611024 0.11274629 0.15611024 -0.57240427 -0.23416537 0.08672792

sequential_2/conv1d_8/Conv1D i1 [32, 1, 3, 126]
000000 f8 1a fd 0c 10 3c f9 15 1d 24 f0 3d 34 e0 27 16
       -8 26 -3 12 16 60 -7 21 29 36 -16 61 52 -32 39 22
000010 02 0d 05 1f 12 f2 0b fe 10 2d 1c 0b 07 fb ff fc
       2 13 5 31 18 -14 11 -2 16 45 28 11 7 -5 -1 -4
000020 3c e6 c9 2e e9 ac 13 06 28 db 12 07 1e 12 e0 db
       60 -26 -55 46 -23 -84 19 6 40 -37 18 7 30 18 -32 -37
000030 f0 e3 a9 10 04 f4 00 2f f0 00 fc c7 e3 04 b2 11
       -16 -29 -87 16 4 -12 0 47 -16 0 -4 -57 -29 4 -78 17
000040 f6 f6 f7 ed d8 fd f4 01 f8 0c 1e f0 f5 04 fb 08
       -10 -10 -9 -19 -40 -3 -12 1 -8 12 30 -16 -11 4 -5 8
000050 b5 f9 17 de 11 00 e3 0f 16 f1 1f 15 d7 19 26 fe
       -75 -7 23 -34 17 0 -29 15 22 -15 31 21 -41 25 38 -2
000060 16 2e 06 23 26 f7 30 29 cd 27 30 f8 07 23 04 24
       22 46 6 35 38 -9 48 41 -51 39 48 -8 7 35 4 36
000070 f9 03 2f 27 0b 1b 1a ff 1c 11 0b 2e 27 01 f9 11
       -7 3 47 39 11 27 26 -1 28 17 11 46 39 1 -7 17
000080 20 12 1a 22 05 f6 35 1b 05 27 3b f2 1d 17 0c 2e
       32 18 26 34 5 -10 53 27 5 39 59 -14 29 23 12 46
000090 fa 25 2c 0d 36 ff 0f 33 fb 04 25 f7 fe f8 50 e9
       -6 37 44 13 54 -1 15 51 -5 4 37 -9 -2 -8 80 -23
0000a0 dd 19 eb c5 23 e6 17 05 ff f9 0c 0d fa e6 e9 d9
       -35 25 -21 -59 35 -26 23 5 -1 -7 12 13 -6 -26 -23 -39
0000b0 a5 fe 0e ee 03 06 f4 e7 0c e4 04 1a b8 04 f6 0b
       -91 -2 14 -18 3 6 -12 -25 12 -28 4 26 -72 4 -10 11
0000c0 f7 03 cf ed ed e3 eb f5 04 0a eb e9 f2 f5 81 f6
       -9 3 -49 -19 -19 -29 -21 -11 4 10 -21 -23 -14 -11 -127 -10
0000d0 11 a0 f6 01 b0 f7 0d bb ef 19 a2 20 03 df 00 0f
       17 -96 -10 1 -80 -9 13 -69 -17 25 -94 32 3 -33 0 15
0000e0 e8 21 0c ce fd fe bd 24 05 da 13 f5 d2 1f e9 e0
       -24 33 12 -50 -3 -2 -67 36 5 -38 19 -11 -46 31 -23 -32
0000f0 03 01 e5 fc 0c 01 f5 15 e0 06 f0 e0 ea 29 12 e8
       3 1 -27 -4 12 1 -11 21 -32 6 -16 -32 -22 41 18 -24

sequential_2/conv1d_9/Conv1D i1 [64, 1, 3, 32]
000000 40 c9 c7 43 a6 0e 7b a4 b4 bf fe ce b4 e3 d4 fb
       64 -55 -57 67 -90 14 123 -92 -76 -65 -2 -50 -76 -29 -44 -5
000010 18 f0 c8 b2 a1 f0 44 22 47 e7 0d 0c 31 15 f9 c8
       24 -16 -56 -78 -95 -16 68 34 71 -25 13 12 49 21 -7 -56
000020 df f3 15 7b eb f8 0b fe 26 f1 10 81 fc 32 de f2
       -33 -13 21 123 -21 -8 11 -2 38 -15 16 -127 -4 50 -34 -14
000030 11 e5 4d d3 0d d8 16 db e2 2c 00 46 cb 4e c1 b8
       17 -27 77 -45 13 -40 22 -37 -30 44 0 70 -53 78 -63 -72
000040 0c fc ff 0c 17 e5 d5 0e 00 b9 15 c9 19 9b d8 e6
       12 -4 -1 12 23 -27 -43 14 0 -71 21 -55 25 -101 -40 -26
000050 12 12 0b 1e 00 1b f2 f8 e1 de 20 00 dc f8 e4 fc
       18 18 11 30 0 27 -14 -8 -31 -34 32 0 -36 -8 -28 -4
000060 e5 17 c6 4d 18 e1 02 f7 f6 b0 e3 05 de 07 e2 0f
       -27 23 -58 77 24 -31 2 -9 -10 -80 -29 5 -34 7 -30 15
000070 0d d1 05 ff d0 49 03 ff 23 ea fc 09 00 e8 de 0f
       13 -47 5 -1 -48 73 3 -1 35 -22 -4 9 0 -24 -34 15
000080 f6 fb 00 19 20 38 ff 24 0d f0 e5 21 db 13 0a 2b
       -10 -5 0 25 32 56 -1 36 13 -16 -27 33 -37 19 10 43
000090 2d c5 ef e7 fa 16 11 17 10 02 1a 0f 20 10 ff 05
       45 -59 -17 -25 -6 22 17 23 16 2 26 15 32 16 -1 5
0000a0 dc 22 d9 30 19 fe f1 7f 0f bf 0a 1a f6 08 e6 f3
       -36 34 -39 48 25 -2 -15 127 15 -65 10 26 -10 8 -26 -13
0000b0 03 e2 df 0e ee 10 04 f1 17 05 20 10 1b e6 f7 07
       3 -30 -33 14 -18 16 4 -15 23 5 32 16 27 -26 -9 7
0000c0 fe be 17 dc fa 20 2f cf 1a e5 ed 1e 2a d2 07 db
       -2 -66 23 -36 -6 32 47 -49 26 -27 -19 30 42 -46 7 -37
0000d0 29 df 1c db f7 f0 0e 0e ea dd ca 17 11 18 cb d9
       41 -33 28 -37 -9 -16 14 14 -22 -35 -54 23 17 24 -53 -39
0000e0 fb b5 0e ef 03 1a 13 e7 e8 0b e5 26 0b f5 18 d4
       -5 -75 14 -17 3 26 19 -25 -24 11 -27 38 11 -11 24 -44
0000f0 bb 0e e8 1c 20 0d 11 df 28 05 ff fa fc f2 81 cc
       -69 14 -24 28 32 13 17 -33 40 5 -1 -6 -4 -14 -127 -52

sequential_2/conv1d_10/Conv1D i1 [128, 1, 3, 64]
000000 e9 06 ea 04 e0 1e eb 12 0c fe e8 ed 10 00 eb f5
       -23 6 -22 4 -32 30 -21 18 12 -2 -24 -19 16 0 -21 -11
000010 d3 15 3a d4 f3 db dd ed ba 2e f3 1d 05 eb ee 2c
       -45 21 58 -44 -13 -37 -35 -19 -70 46 -13 29 5 -21 -18 44
000020 27 f1 e1 2d 1b 03 e5 e6 1a 3e ee 28 db 00 ec 10
       39 -15 -31 45 27 3 -27 -26 26 62 -18 40 -37 0 -20 16
000030 dc 0f de 13 f3 09 06 1d d4 02 1f c8 e1 b8 f6 f2
       -36 15 -34 19 -13 9 6 29 -44 2 31 -56 -31 -72 -10 -14
000040 fe 28 c9 d5 eb 03 d2 d9 fc e1 ed 11 f9 de fb ec
       -2 40 -55 -43 -21 3 -46 -39 -4 -31 -19 17 -7 -34 -5 -20
000050 2a f8 09 de 21 a5 e9 63 c0 18 e4 11 ab f9 e3 ca
       42 -8 9 -34 33 -91 -23 99 -64 24 -28 17 -85 -7 -29 -54
000060 24 c6 c0 fd 0d db e1 fe 30 12 0a e5 f7 f1 f6 04
       36 -58 -64 -3 13 -37 -31 -2 48 18 10 -27 -9 -15 -10 4
000070 e1 15 f2 0a f7 d4 1a 0c b7 ee 15 81 07 ba 28 e3
       -31 21 -14 10 -9 -44 26 12 -73 -18 21 -127 7 -70 40 -29
000080 01 09 c6 d5 d9 02 f0 1f 1c f2 ea 23 0a f4 f0 01
       1 9 -58 -43 -39 2 -16 31 28 -14 -22 35 10 -12 -16 1
000090 cb 0a 15 29 1f d2 fa cd e8 25 f0 d2 d7 0e fc e4
       -53 10 21 41 31 -46 -6 -51 -24 37 -16 -46 -41 14 -4 -28
0000a0 e4 de f4 0b 05 d1 ca f7 19 05 09 e9 c2 fb f5 e6
       -28 -34 -12 11 5 -47 -54 -9 25 5 9 -23 -62 -5 -11 -26
0000b0 c1 01 1d e9 f7 f6 c7 08 b5 c0 1d 95 f9 c5 fd 1d
       -63 1 29 -23 -9 -10 -57 8 -75 -64 29 -107 -7 -59 -3 29
0000c0 12 04 0d 24 9e 0f cf 32 2a 30 01 89 04 f0 19 b4
       18 4 13 36 -98 15 -49 50 42 48 1 -119 4 -16 25 -76
0000d0 1c f6 33 b5 09 56 3d 27 e7 0e 19 1c 33 10 c7 eb
       28 -10 51 -75 9 86 61 39 -25 14 25 28 51 16 -57 -21
0000e0 04 21 1b 03 1a 02 c5 dd 23 f0 97 f2 00 37 b1 d9
       4 33 27 3 26 2 -59 -35 35 -16 -105 -14 0 55 -79 -39
0000f0 dd c4 03 2b d1 57 40 02 0e 36 e2 27 af b1 38 2c
       -35 -60 3 43 -47 87 64 2 14 54 -30 39 -81 -79 56 44
